proto2/scripts/train/few_shot/results/best_model.pt (torch, 766633 bytes, 36 tensors)

weight f4 [64, 1, 3, 3]
000000 eb 79 a1 be f8 84 83 bd 35 fc 22 be 3b 7f b7 bd
       -0.3153833 -0.06421846 -0.15916522 -0.08959814
000010 37 40 96 be e3 fb 09 3e a6 55 99 be 54 37 a4 bc
       -0.29345867 0.13474993 -0.29948157 -0.020045914
000020 a1 a6 ef 3d 45 6c e4 bd bf 44 41 3e 47 ed 29 3d
       0.11701704 -0.11153463 0.18873881 0.04148605
000030 08 87 3c 3e 03 11 5b 3e 4f 4b 17 be ef 72 f7 3d
       0.18410885 0.21393208 -0.14774822 0.12082469
000040 23 42 14 be c2 b3 d3 3d 5a 41 33 be 4b 1d 1d 3e
       -0.14478354 0.103370205 -0.17505398 0.15343206
000050 3a 03 8b 3d 83 6e 06 be 3c 13 28 be 9f f7 b0 3d
       0.06787725 -0.13128094 -0.16413587 0.0864098
000060 e7 c1 9e 3e f4 2c 23 3e fb 80 02 bd da 21 74 bc
       0.3100731 0.15935117 -0.031861287 -0.014900649
000070 75 58 42 3e 63 7e 6c be e2 b8 e4 3d 13 87 e2 bd
       0.18979056 -0.23095088 0.11168076 -0.110609196
000080 e5 46 46 3e 33 d3 f2 bd d6 e8 83 3c 45 58 e7 3d
       0.19362982 -0.11856689 0.016102236 0.11296133
000090 33 6b 6b 3e a2 b6 45 bd be 0c 9c 3e cc e8 8f be
       0.22990112 -0.048269875 0.30478472 -0.28107297
0000a0 3f d5 70 bd 5e dc a9 be 09 dc f1 3c 85 bc c3 3d
       -0.058797117 -0.3317594 0.029523866 0.095574416
0000b0 86 fc 08 be 62 77 0d 3e 9a b9 5f bd f8 76 94 be
       -0.1337758 0.13815072 -0.054620363 -0.28997016
0000c0 b3 13 83 3e a4 ba 51 3e bc 1f 2c 3e e4 77 88 3e
       0.25600967 0.20481354 0.1680898 0.2665397
0000d0 f0 c2 f9 3d 38 74 35 3e 43 6f 8d 3e 27 58 8a bd
       0.121953845 0.17720115 0.27623948 -0.06755095
0000e0 0f 16 85 be a8 1c 28 be 23 09 37 bd bf 01 14 bd
       -0.25993392 -0.16417181 -0.044686448 -0.036134478
0000f0 bc 1b 0b bb 45 d3 43 3e 8e e2 db 3d 60 1c 7c be
       -0.0021226248 0.19123562 0.10736571 -0.24620199
000100 a8 4b cc bd 6b 31 a1 bd 9c 03 50 3e 63 e4 f6 bd
       -0.09975368 -0.07870754 0.20313877 -0.1205528
000110 d5 0f 0f be 01 da 5b bd 91 1c ae bd 91 af a8 bd
       -0.13970883 -0.0536747 -0.08501542 -0.08236612
000120 63 3d a7 be b0 96 97 3e 4a 32 35 3e 5a ca 21 be
       -0.32664022 0.29607153 0.17694965 -0.15799847
000130 70 ea 55 be a2 1e 3a 3c 11 d4 41 3e 78 be 76 be
       -0.20890212 0.0113598425 0.18928553 -0.24096096
000140 91 e7 01 be 86 2f 0e 3e be 43 5c be 44 e8 19 bd
       -0.12685992 0.13885316 -0.21510217 -0.03757502
000150 66 c2 80 be e2 97 9e 3e 14 84 37 3e a7 07 9e be
       -0.25148314 0.30975252 0.17921478 -0.30865213
000160 6e 2d 3c be 23 03 f1 3d 71 4f 93 3c 56 df b3 3d
       -0.18376705 0.117681764 0.017982217 0.08782832
000170 90 f8 8b be 79 fd 36 be b3 52 1a 3e 9f 93 82 be
       -0.27338076 -0.1787013 0.1507061 -0.2550325
000180 a1 dc 8e bd 66 b6 15 3e bf 78 30 3e 32 bb a9 3c
       -0.069756754 0.1462036 0.17233561 0.020719144
000190 c3 f6 c6 3d fa 6c 18 3e c7 51 25 bd 07 c5 ba bd
       0.09715035 0.14885321 -0.040361192 -0.09119611
0001a0 7f df 81 3e 48 fb a5 3e 0e 83 1d 3e ce 54 16 be
       0.25365826 0.32418275 0.15382025 -0.14680788
0001b0 1d a4 94 be 24 a5 a8 be f0 eb 0d 3b 83 4e 03 be
       -0.29031458 -0.32938492 0.0021655522 -0.12822919
0001c0 7a 44 ad bd 78 b8 42 bd fc 50 a1 3e a1 5c a1 3e
       -0.084603265 -0.047539204 0.315071 0.31515983
0001d0 0e 74 03 bd a9 af cd bd 37 7a 24 3e 87 05 d7 bc
       -0.0320931 -0.1004327 0.16062246 -0.026247753
0001e0 f8 dd a1 be 35 e5 de 3d 8c 1f a4 3e 08 8e 86 be
       -0.3161466 0.108835615 0.32055318 -0.26280236
0001f0 65 9e 92 bd 54 9a 97 3d 65 5b 8b be 81 38 92 be
       -0.071591176 0.07402483 -0.27218166 -0.28558734
000200 83 65 7e 3e 52 0f f3 bd b1 5c 47 3e be 26 f6 3c
       0.24843411 -0.118681565 0.19468953 0.03004777
000210 a3 81 a5 3d 1f 0c 63 be c6 4d 91 bd 8f 67 61 3e
       0.08081367 -0.22172593 -0.07094912 0.2201216
000220 97 30 1d 3e 2a 9d c4 bd bb 39 2a 3d b5 28 83 3e
       0.15350567 -0.09600289 0.041558962 0.25616995
000230 58 45 95 be 03 ef 5b 3e c7 ab cb bd 3c d7 89 bd
       -0.29154468 0.21477894 -0.09944873 -0.06730506
000240 95 83 22 3e 73 48 8e be c1 18 53 bd e9 26 a3 3e
       0.15870507 -0.2778965 -0.05153728 0.31865624
000250 5a 77 f3 3d 75 4a ff bd e2 39 94 bd 52 26 86 3e
       0.11887999 -0.124653734 -0.07237603 0.2620111
000260 ab 89 ff 3d 54 fe 66 3e 65 59 5c be 70 b7 c3 3d
       0.1247743 0.22557956 -0.21518476 0.09556472
000270 6b 9c 75 3d 78 69 6d 3d f8 14 9e 3e c2 d0 3d 3e
       0.059963625 0.05796191 0.30875373 0.18536666
000280 de e6 6b 3e a6 c4 15 3e d4 14 10 3e 8a 7a 6a bd
       0.23037288 0.14625797 0.14070445 -0.05724577
000290 69 9d 96 be b6 17 90 be b8 fa 53 be 27 3f 5e be
       -0.2941697 -0.2814309 -0.2070111 -0.21703778
0002a0 e9 29 20 3e ad 90 d2 3d 05 5d c4 bd a0 ab 81 be
       0.15640987 0.10281501 -0.095880546 -0.25326252
0002b0 25 52 a8 3e e4 c2 80 3e 86 52 23 3e 89 77 a9 3e
       0.3287517 0.2514869 0.15949449 0.3309901
0002c0 cb 92 34 be 31 54 41 be ed ed 46 be f1 85 74 bc
       -0.17634122 -0.18879773 -0.19426699 -0.014924512
0002d0 83 89 96 be e3 8a 87 3e b6 54 1f 3c 09 2b 2a 3e
       -0.29401788 0.2647315 0.0097247865 0.16617979
0002e0 93 0c 3b be ee e9 0a bd 3d 1f 31 3d 73 b3 ba bd
       -0.18266515 -0.0339145 0.04324268 -0.091162585
0002f0 6d 10 a1 3e b7 6d 1b be d8 bf d6 3d db c9 66 be
       0.31457844 -0.15178572 0.1048581 -0.22537939
000300 01 af 1f bd 33 42 b2 bd 54 eb 13 3e 27 db 6e 3e
       -0.038985256 -0.08704033 0.1444524 0.23325787
000310 74 77 a8 3d 25 e4 f2 bc e9 fe ae bd 71 8f 85 3e
       0.08225909 -0.029649803 -0.08544714 0.26086
000320 f4 c6 a1 bd d2 fa 76 3e 82 e0 17 be 73 9e 8c 3e
       -0.078992754 0.24119118 -0.14831737 0.27464637
000330 69 25 aa 3e b5 04 69 3e 8f d8 43 3e 2a ef ff 3d
       0.33231667 0.22755702 0.1912558 0.12496789
000340 41 0c 27 be a0 09 a1 3b 66 b8 ec 3d 6e 49 b0 bd
       -0.16313268 0.0049144775 0.11558609 -0.086077556
000350 5c 80 78 3d 4b bf 48 3e 78 ba 9d be 5c da 9a be
       0.060669288 0.19604222 -0.30806327 -0.3024472
000360 b4 d1 4b be 5c 69 28 3d d4 84 78 bd e5 c2 93 3d
       -0.19904214 0.041116104 -0.06067355 0.072149076
000370 9c db a2 bd 74 f4 5f be 15 bf 35 3d 7a eb 66 3e
       -0.079520434 -0.21870595 0.044371683 0.22550765
000380 58 96 4d be e4 dd 95 3e 69 5c a8 3d 73 70 a8 3e
       -0.20076883 0.29270852 0.08220751 0.32898292
000390 93 2c 9c be ff 2e a3 be 46 86 e8 3d 89 18 9f be
       -0.30502757 -0.31871793 0.113537356 -0.31073406
0003a0 55 b1 8b be c6 f9 2d 3e 7a 53 26 3e 03 21 9b be
       -0.2728373 0.16989812 0.16242781 -0.30298623
0003b0 05 6c 76 3e 96 a3 86 bd 29 30 7d 3e ba d2 47 be
       0.24064644 -0.0657417 0.24725403 -0.1951398
0003c0 98 29 a2 be e0 1b 62 be fb 20 52 bd 2c be aa be
       -0.3167236 -0.22080946 -0.051300984 -0.33348215
0003d0 6e b2 be bc 75 c6 29 be 4e 45 a0 bd 53 fe 6e ba
       -0.023278441 -0.16579612 -0.07825719 -0.0009116877
0003e0 e9 f9 9c 3c b2 30 a7 be 8e e7 2e 3e 8b 9b 50 be
       0.019162135 -0.3265434 0.17080519 -0.20371835
0003f0 48 b7 4f 3e 3f d5 9c 3e 7d af e3 bd 21 70 17 3d
       0.2028476 0.30631444 -0.11117456 0.03697217

bias f4 [64]
000000 d0 9e f6 bd 0d ce 90 3e aa f2 92 be 96 4c e6 bd
       -0.1204201 0.28282204 -0.28700763 -0.11245076
000010 14 ef 0c 3e 50 8f 79 3e 49 55 80 be f4 2e 6c be
       0.13763076 0.24371076 -0.25065067 -0.23064786
000020 07 f3 4d 3e 22 1b 68 3e 69 0a 5e 3e 06 ee 43 3e
       0.20112239 0.226666 0.21683659 0.19133767
000030 0e 81 91 be 54 07 e1 3d 9e 78 45 bc c8 d1 51 3d
       -0.28418773 0.10987726 -0.012052683 0.051225454
000040 30 89 02 be 65 1f a5 3e 71 b7 93 bc 64 ab 69 be
       -0.12747645 0.32250515 -0.018031808 -0.22819287
000050 6a bc 30 3e a1 8b e7 bb 6d bd 54 be 1e d8 16 be
       0.17259374 -0.0070662056 -0.20775385 -0.1473088
000060 2a 3a 57 be 85 27 86 3d 23 6b 92 3d 4f 01 bd bd
       -0.21018282 0.065505065 0.07149341 -0.09228765
000070 1a b9 df 3c bb 47 39 be f6 49 a9 be 1c 97 03 bc
       0.027309943 -0.18093769 -0.3306424 -0.008031633
000080 96 ba a1 3e f9 4e 7e be 6c 92 87 3d 87 87 2b be
       0.31587666 -0.24834813 0.06619725 -0.16750918
000090 6f bc 56 bd a6 62 9f 3d 34 37 28 be 67 47 92 be
       -0.052425798 0.077824876 -0.16427308 -0.285701
0000a0 04 39 ac bb de d9 cb bc 9c 0d 77 3e 1f 3c 08 3e
       -0.00525582 -0.02488416 0.24126285 0.13304184
0000b0 d8 2f 44 3e 95 63 56 be 80 ed 9f be 3e 4b 4e be
       0.19158876 -0.20936425 -0.31235886 -0.2014589
0000c0 5f 1b 89 be 54 af 3e bc b2 b2 ca bd 71 54 fb bc
       -0.26778695 -0.011638481 -0.09897365 -0.030679913
0000d0 04 a2 c0 bd 43 ca 61 bd 02 b8 97 3d a0 46 a7 3e
       -0.09405902 -0.055124532 0.074081436 0.3267107
0000e0 b9 e9 8c bd 32 13 8c 3e f1 4e 99 3e c5 56 23 3e
       -0.068805166 0.27358395 0.2994304 0.15951069
0000f0 66 3f b4 bd e0 1e b5 3d 80 cf 5f be 01 10 e8 bc
       -0.08801155 0.088437796 -0.21856499 -0.028327944

weight f4 [64]
000000 2b e1 7f 3f 10 08 80 3f 95 00 80 3f 05 13 80 3f
       0.99952954 1.000246 1.0000178 1.0005804
000010 cc 1d 80 3f fb 09 80 3f c7 d7 7f 3f a7 f7 7f 3f
       1.0009093 1.0003046 0.99938625 0.9998726
000020 5b c9 7f 3f 9c fe 7f 3f 54 bc 7f 3f dd 0f 80 3f
       0.9991662 0.9999788 0.9989674 1.0004841
000030 12 b8 7f 3f e8 07 80 3f b1 06 80 3f 11 1b 80 3f
       0.99890244 1.0002413 1.0002042 1.000826
000040 54 17 80 3f c4 1a 80 3f f3 df 7f 3f 06 bf 7f 3f
       1.0007119 1.0008168 0.99951094 0.99900854
000050 d3 0d 80 3f 19 f4 7f 3f 5b cc 7f 3f 2f 07 80 3f
       1.0004219 0.9998184 0.99921197 1.0002192
000060 75 00 80 3f 6c fa 7f 3f df d0 7f 3f 9f ee 7f 3f
       1.000014 0.9999149 0.99928087 0.9997348
000070 17 ea 7f 3f a8 1c 80 3f c0 e1 7f 3f 7e 25 80 3f
       0.9996657 1.0008745 0.9995384 1.0011442
000080 f0 02 80 3f 15 f1 7f 3f 79 05 80 3f 88 d0 7f 3f
       1.0000896 0.99977237 1.000167 0.9992757
000090 03 20 80 3f ab 0d 80 3f 38 25 80 3f 8b 11 80 3f
       1.0009769 1.0004171 1.0011358 1.0005354
0000a0 dd e1 7f 3f 11 ee 7f 3f b7 b6 7f 3f 94 17 80 3f
       0.99954015 0.99972636 0.99888176 1.0007195
0000b0 26 15 80 3f 59 15 80 3f 42 ff 7f 3f 32 1a 80 3f
       1.0006454 1.0006515 0.9999887 1.0007994
0000c0 f8 f4 7f 3f 58 e5 7f 3f 97 b5 7f 3f b1 d0 7f 3f
       0.9998317 0.99959326 0.9988646 0.9992781
0000d0 29 e7 7f 3f a6 13 80 3f d4 00 80 3f 75 11 80 3f
       0.999621 1.0005996 1.0000253 1.0005327
0000e0 0a dd 7f 3f 3c 08 80 3f a7 15 80 3f 7c f1 7f 3f
       0.99946654 1.0002513 1.0006608 0.9997785
0000f0 2d 33 80 3f 1e eb 7f 3f 6f 2d 80 3f dd f9 7f 3f
       1.0015618 0.99968135 1.0013865 0.99990636

bias f4 [64]
000000 86 bb 6b b9 75 27 9d 39 dc d0 10 38 38 5d d6 39
       -0.00022481204 0.0002997477 3.452679e-05 0.00040886714
000010 cc 86 0c ba b4 00 7c 3a 85 1d 36 39 69 40 b1 b9
       -0.00053606625 0.0009613142 0.0001736787 -0.0003380806
000020 18 ab 80 ba 77 7b fe 39 26 66 88 ba bd a3 91 ba
       -0.0009816615 0.00048538644 -0.0010406419 -0.001111142
000030 73 7f 24 b8 0f ef 31 b9 f6 b0 14 b9 4b 60 80 3a
       -3.9219343e-05 -0.00016969092 -0.00014180303 0.0009794323
000040 43 eb c2 39 8d 45 92 39 f8 95 b0 ba f7 cd 09 ba
       0.00037177847 0.0002789911 -0.0013472429 -0.00052568264
000050 ec af 3b 3a bd 07 b2 3a 44 ae a6 ba 46 e6 24 3a
       0.0007159698 0.0013582628 -0.001271673 0.0006290417
000060 e4 c3 0e b9 18 f6 cb b9 02 60 14 39 5a 08 c5 b9
       -0.0001361515 -0.0003890253 0.00014150146 -0.0003758099
000070 87 dd 55 37 b3 ea 69 3a c9 f9 2b 39 b3 06 e2 39
       1.2747368e-05 0.00089232175 0.00016400883 0.0004311107
000080 2a f4 25 3a e2 49 1c 3a 8d 5f 42 b9 4b 99 8e b9
       0.0006330634 0.0005961937 -0.00018536877 -0.00027198563
000090 11 57 e0 39 9a 60 29 ba e2 b1 9a 3a 65 13 cc 39
       0.0004278948 -0.0006461233 0.0011802281 0.00038924362
0000a0 34 f8 4d ba 0a 9d 54 ba 4f 12 9a ba 23 ba 55 ba
       -0.00078571145 -0.0008110559 -0.0011754724 -0.00081530417
0000b0 a5 8f 8e 3a e6 61 13 3a ae 60 8a 39 2c 64 6f 3a
       0.001087655 0.0005622193 0.00026393443 0.0009132053
0000c0 09 59 88 ba a5 cd 27 3a 8d c5 a5 b9 1c c5 84 b9
       -0.0010402511 0.0006401188 -0.0003161844 -0.0002532386
0000d0 19 a9 f0 b9 63 b3 67 3a ba 9d 01 b9 26 e2 4c 3a
       -0.00045902355 0.00088386814 -0.00012361156 0.0007815681
0000e0 01 85 7d ba 62 1b 8d ba b4 ab 9b 3a ea d3 1b 38
       -0.0009671003 -0.0010765607 0.0011876733 3.715224e-05
0000f0 ac b6 b9 b9 5e 4a ec b9 aa 36 87 ba 36 df 00 3b
       -0.0003542205 -0.00045068836 -0.0010315974 0.0019664294

running_mean f4 [64]
000000 43 58 fe 42 89 9d 69 c2 50 4a 0a c2 67 34 a1 c1
       127.172386 -58.403843 -34.57257 -20.150587
000010 5c 9c dc 41 ca 16 00 c3 0c f0 eb 3e d3 9c b3 42
       27.576347 -128.08902 0.4608158 89.8063
000020 f3 02 4d 42 86 fd f8 41 3d 19 c9 41 2e 42 b7 c2
       51.25288 31.12379 25.137323 -91.62926
000030 69 0e 12 42 da 3c 4f 41 a1 71 54 42 ba 78 2c c2
       36.514072 12.952356 53.110966 -43.117897
000040 72 b4 6d c2 08 9b 0b c3 94 20 c5 42 0d 3d 09 c2
       -59.426216 -139.60559 98.56363 -34.30962
000050 83 4e c2 c1 3c b4 91 c0 b6 30 1c c3 aa aa 3b 42
       -24.288336 -4.5532513 -156.19028 46.916664
000060 d6 d8 3c 42 dc 36 01 42 f4 13 81 42 43 0c ec 42
       47.211754 32.303574 64.53897 118.02395
000070 da 43 a3 c2 f6 5d e6 42 18 1b f5 c2 09 32 9c c2
       -81.63252 115.18352 -122.55292 -78.097725
000080 b5 fa 64 41 e7 8b 1a c3 e3 f7 d4 c1 87 46 01 c3
       14.311208 -154.5465 -26.621038 -129.2755
000090 b8 53 9a c2 97 d9 99 c2 d1 88 4b 42 b1 31 62 c1
       -77.16351 -76.92498 50.88361 -14.137132
0000a0 c8 46 a4 42 7a 22 cb c2 a3 10 11 c2 04 09 ee c1
       82.138245 -101.56734 -36.266247 -29.754402
0000b0 23 16 2f 42 50 ee 0b c2 23 79 08 40 8d be a6 41
       43.771618 -34.982727 2.1323936 20.843042
0000c0 ba a8 96 c2 f5 13 5d 43 55 12 88 42 28 65 13 c2
       -75.329544 221.07796 68.035805 -36.848785
0000d0 90 46 89 c2 97 86 25 42 4c 4c c4 42 8d 38 15 c3
       -68.63782 41.381435 98.14902 -149.2209
0000e0 87 67 bf c2 3c 15 d7 3f 47 cc 7e c2 15 3b 8a 42
       -95.7022 1.6803355 -63.69949 69.115395
0000f0 1f 26 41 41 4c ea ae 40 c6 78 2c 3e c5 e2 a7 41
       12.071807 5.4661007 0.16842946 20.985727

running_var f4 [64]
000000 71 62 df 45 d8 a1 b4 44 4c 16 35 44 43 13 52 43
       7148.305 1445.0576 724.3484 210.07524
000010 a4 c6 73 44 b7 a5 ef 45 9b 5a 9d 43 a2 99 4b 45
       975.10376 7668.7144 314.70786 3257.602
000020 10 05 ae 44 98 5b 85 44 84 07 2b 44 2f 30 4c 45
       1392.1582 1066.8623 684.11743 3267.0115
000030 98 81 0e 45 ca 0b ba 44 18 cf bb 44 83 be e5 44
       2280.0996 1488.3684 1502.4717 1837.9535
000040 54 5a f2 44 04 85 f5 45 5c fe 91 45 41 56 b3 44
       1938.8228 7856.627 4671.795 1434.6954
000050 59 b9 f5 43 ad 73 c6 43 f2 f2 1a 46 f9 76 e0 44
       491.44803 396.90372 9916.736 1795.7179
000060 16 d5 99 44 e8 47 4b 45 7e 90 0b 45 4e 44 b0 45
       1230.6589 3252.4941 2233.0308 5640.538
000070 48 7a 3d 45 6b 17 a6 45 d1 f3 c7 45 3a a3 23 45
       3031.6426 5314.9272 6398.477 2618.2017
000080 76 52 e5 42 18 c0 16 46 7d c3 4c 44 9c 48 d0 45
       114.66106 9648.023 819.0545 6665.076
000090 46 98 22 45 c2 88 7d 45 74 f8 0c 45 36 d0 5c 43
       2601.517 4056.5474 2255.5283 220.81332
0000a0 4d f9 33 45 d4 d6 88 45 7f fc e8 44 91 0c 2b 44
       2879.5813 4378.8535 1863.8905 684.19635
0000b0 66 36 d4 44 44 b9 73 44 e4 6f e5 43 ff d7 cc 43
       1697.7 974.8948 458.87415 409.68747
0000c0 d2 53 2c 45 ff 9e 98 46 4b 03 11 45 22 ad 1f 44
       2757.2388 19535.498 2320.2058 638.7052
0000d0 3d f3 26 45 59 0a 5b 44 d3 cc 92 45 c2 04 0d 46
       2671.2024 876.1617 4697.603 9025.189
0000e0 b9 66 73 45 e7 5b ad 44 50 03 fe 44 54 a4 1a 45
       3894.4202 1386.872 2032.1035 2474.2705
0000f0 46 08 a0 44 ff 6a 19 43 d0 5a 04 44 58 6a 86 44
       1280.2585 153.41795 529.41895 1075.3232

weight f4 [64, 64, 3, 3]
000000 48 9f a2 bc 65 63 fe bc 9d 13 0f bd 26 ed 7d bc
       -0.019851342 -0.031053254 -0.034930814 -0.015498435
000010 61 22 33 3c ed 8d 84 ba 66 f7 56 3a 63 33 93 3c
       0.01093349 -0.0010113098 0.00082003174 0.017968839
000020 67 1c 3a 3c 12 ac dc 3c 0e bf 2f bc 01 7e 15 3c
       0.011359311 0.026937518 -0.010726703 0.00912428
000030 51 86 b4 ba 69 73 7c bc 65 fb e7 bc 3d 3e 47 bc
       -0.001377294 -0.015408375 -0.028318116 -0.012160835
000040 e5 48 24 bd 62 7b 8d 3b b2 bf 09 bd 11 d0 81 bc
       -0.04010858 0.004317687 -0.03363008 -0.015846284
000050 d9 db 85 bc db 93 10 3d 56 69 10 bd 4c e5 22 bc
       -0.016340183 0.035297256 -0.035256706 -0.009942364
000060 08 2b 81 3c fc c4 40 3c 2b 9e 0d 3d 98 a6 23 3c
       0.01576759 0.011765715 0.03457467 0.0099884495
000070 94 31 c7 3c b8 34 cb bc 15 08 d0 3c b1 48 41 39
       0.024315633 -0.024805412 0.025394479 0.00018432994
000080 c9 bd 9c bb d1 91 9c bc 38 01 73 3c 80 bc b0 3c
       -0.0047833663 -0.0191125 0.014831834 0.021574259
000090 5f 0d fa bc d1 b9 04 bd e6 5d 8a 3c ea a0 13 bd
       -0.030523954 -0.03240377 0.016890477 -0.03604213
0000a0 55 3c 1d bd 17 de 02 3d a7 06 57 3c 3b 37 4a 3b
       -0.038387615 0.031950083 0.013124145 0.0030855674
0000b0 53 07 1a ba 0c 8c 89 3c df 7f f9 bc c8 a1 0c 3d
       -0.0005875725 0.016790412 -0.030456482 0.034333974
0000c0 c1 64 de bb 27 0b 38 3b 77 a0 22 bd 17 88 03 3b
       -0.006786913 0.002808282 -0.039703812 0.002007013
0000d0 05 fb d4 bc 0d f1 c0 3c 34 1b 20 bd 20 0e 1e 3d
       -0.025998602 0.023552442 -0.039088443 0.03858769
0000e0 62 1f 22 bc 5f 5d 6b bc 3d c0 70 3a ac b4 0a bd
       -0.009895178 -0.014365523 0.0009183919 -0.03386371
0000f0 e0 8f 69 3c 42 ba 12 3d 18 fc 88 bc f3 3d 65 bc
       0.014255494 0.03582216 -0.01672177 -0.013991821
000100 f0 f9 09 bd e9 0c 1c 3c 1d 25 f8 3c 02 3d 0d 3d
       -0.033685625 0.009524562 0.030291134 0.03448201
000110 c9 63 4f 3c 2c de 97 3c ba d0 f7 bc 5c b3 8f bc
       0.012658068 0.018538557 -0.030250896 -0.01754158
000120 59 d9 21 3d d5 48 75 3a 8f 18 8c 3c a3 c1 01 bd
       0.03951392 0.0009356861 0.017101554 -0.031678807
000130 a0 52 0a bd 43 36 07 3d 52 c6 99 bc 6a 2b b6 bc
       -0.033770204 0.033010732 -0.018771324 -0.022237498
000140 cf 1c 0d bb a5 d6 61 bb 80 38 98 3c b3 8d e0 3c
       -0.0021532064 -0.0034460214 0.018581629 0.027411317
000150 44 55 16 3d 8b 67 42 bc 0b f7 26 bc cd 9a 04 bd
       0.03670241 -0.011865507 -0.010190736 -0.032374192
000160 2d 2f ac bc 06 79 d2 bb 90 56 ae bc de 97 e5 3a
       -0.021018589 -0.0064231185 -0.02128151 0.0017516573
000170 99 f0 0f bc ab 19 bf 3c 68 0c 16 bd 07 b7 14 ba
       -0.00878539 0.02332767 -0.036632925 -0.0005673025
000180 46 2f 7c bc cf ba 3e 3b a7 23 b3 bc 86 a6 2a bd
       -0.01539213 0.0029103046 -0.021867586 -0.041662715
000190 0b 71 f0 ba 5b e0 72 3b 5e f1 10 3d 8c 7a f3 bc
       -0.0018344236 0.0037059996 0.035386436 -0.02972152
0001a0 da f6 cc bb 22 2f 08 3d 13 d8 21 3d c6 86 c9 3b
       -0.006255013 0.033248074 0.039512705 0.0061500994
0001b0 5a 4f a3 bc f2 a0 cc 3c a7 80 f2 bc 06 77 11 bd
       -0.019935299 0.024979088 -0.029602362 -0.0355139
0001c0 37 92 85 3b 14 2d c5 bc ec 8b 61 3c b2 76 8f bc
       0.004076268 -0.024069346 0.01376627 -0.017512653
0001d0 57 48 f7 bc 6e 12 81 bc ba ef da bc c3 4d e7 bc
       -0.030185862 -0.015755858 -0.026725639 -0.028235322
0001e0 3d ab b0 3c 01 ce 76 bb 98 cc 88 bc 0f 65 25 bd
       0.021566028 -0.003765941 -0.01669912 -0.04037958
0001f0 41 dd 03 3d 95 39 c0 bc f2 19 08 3d 17 ad 0e bd
       0.032193426 -0.023464957 0.03322787 -0.03483304
000200 36 57 9a bc 18 3a 20 3d 73 84 92 3c da 28 da bc
       -0.018840414 0.039117903 0.017885422 -0.026630808
000210 02 ed e6 bc 70 08 a9 bc 10 9e 80 3c 62 6c b2 3c
       -0.028189186 -0.020633906 0.01570037 0.021780197
000220 39 88 69 bc ff 2a 11 bd 97 df e4 bc 12 e6 de 3c
       -0.014253669 -0.035441395 -0.027938647 0.027209315
000230 43 6d e9 3b 66 de 87 3c e5 79 b7 3c c7 5e dc bc
       0.0071236207 0.01658554 0.022396991 -0.026900662
000240 69 21 02 bd a5 34 f8 bc 13 4f 25 3d c6 d3 55 39
       -0.031770144 -0.03029854 0.040358614 0.00020392155
000250 30 9f a0 3a 92 da 27 bd 18 8f d0 3b 9c ca 20 bd
       0.0012254473 -0.04097993 0.0063647144 -0.039255723
000260 b8 20 dc bc 20 04 0b 3b 02 52 1c bd 6a 26 95 3c
       -0.02687107 0.0021212175 -0.038164146 0.018206794
000270 70 99 ea 3c 3c 19 9c bc 02 80 f7 3c 84 71 02 3d
       0.028637618 -0.019055001 0.030212406 0.03184654
000280 ca b2 1f bd 1f d1 fe 3a ef 39 31 bc 60 49 b2 bb
       -0.038988866 0.0019440985 -0.010817035 -0.005440876
000290 b4 28 be 3c 5f 1c b0 bc 49 91 de bc 0a 57 89 3b
       0.023212768 -0.021497903 -0.027168887 0.004191284
0002a0 3b aa 10 3c 55 3a b8 bc c8 60 98 bc eb 45 1f bd
       0.008829649 -0.022488752 -0.018600836 -0.03888504
0002b0 2b f3 ba 3c 74 10 ab bc 57 25 a7 3c 6e 70 0f bd
       0.02282103 -0.020881869 0.020403547 -0.03501933
0002c0 3d 90 e0 bc 2c 5a b9 ba 85 ef 27 3d 0d 99 b5 bb
       -0.027412528 -0.0014141253 0.040999908 -0.0055419267
0002d0 b5 ee af bb d5 3c 18 bc ba 86 b3 3b 10 87 6b bc
       -0.0053690323 -0.009291847 0.005478707 -0.014375463
0002e0 d0 55 03 3d dd 64 93 3b 52 a9 ac 3c d3 d9 11 3b
       0.03206426 0.004498108 0.021076832 0.0022255077
0002f0 9f 0f 01 3d 89 bd d4 bc d2 61 a6 bc 75 9f 84 bc
       0.031509038 -0.025969284 -0.020310316 -0.016189316
000300 06 76 8d bc 16 c2 55 3b f4 fc 9e 3c f2 2a f3 bc
       -0.017268192 0.0032616905 0.019407727 -0.029683564
000310 dc a4 e5 bc df 3e d4 3c d1 3a 98 3c 6d 8b 00 3c
       -0.028032713 0.025908886 0.018582733 0.007845742
000320 2b 81 8f 3c ff c8 82 3b ce c6 80 bc 86 b6 e5 bb
       0.017517647 0.0039912458 -0.015719797 -0.007010284
000330 39 c0 3a bc cd b8 94 bc 71 00 d3 bc 24 e9 dc bb
       -0.0113983685 -0.018154526 -0.025757046 -0.0067416597
000340 51 26 cf bc 15 46 ca bc ca 70 d7 bc 4e c8 23 3d
       -0.025286825 -0.02469162 -0.0262989 0.039985947
000350 dd 25 26 3d d2 5a ba 3c 9f ce 03 bc 80 cc 2b 3c
       0.040563453 0.022748385 -0.008044868 0.010485768
000360 11 52 90 3c 00 eb f6 3b f4 31 b0 3c d9 e9 82 3c
       0.017617257 0.0075353384 0.021508195 0.015980648
000370 c9 60 5e 3c 48 d8 23 3d eb 75 0c bd 56 b5 7a 3b
       0.01357288 0.040001184 -0.034292143 0.0038255057
000380 86 fb 08 3d 97 0e 08 3d d7 34 3d bc e8 ee e1 3c
       0.033442996 0.03321704 -0.0115482425 0.02757974
000390 59 ad cc bc 86 04 02 bb 65 5a 1c 3d 57 f5 ef bb
       -0.024985002 -0.0019839122 0.038172144 -0.007322948
0003a0 a4 52 b2 3c 93 0f 2a 3d a3 16 98 bc de e5 94 3c
       0.021767922 0.04151876 -0.018565482 0.018176015
0003b0 28 db 8b bc 77 73 3f bc 23 73 01 3d bc 03 4e 3c
       -0.017072275 -0.011685244 0.031603944 0.0125741325
0003c0 35 df 14 bd ed 8d 20 3d 2f 9f ef 3c d0 d3 b8 3c
       -0.03634568 0.03919785 0.02925071 0.022561938
0003d0 9d c1 a3 3b fd 21 9e 3c 7a d0 5b bc 86 ec 70 bc
       0.0049974457 0.019303316 -0.013416404 -0.014704829
0003e0 16 9f b1 3c 5c 3f c6 3b 58 bd 23 3d 22 d0 c2 39
       0.021682303 0.0060500335 0.039975494 0.00037157635
0003f0 c1 79 2c bb f4 e1 c1 3c ec 46 a9 bc 05 16 19 bd
       -0.0026317688 0.023667313 -0.020663701 -0.037374515

bias f4 [64]
000000 42 f9 a3 bc 2c e1 6c 3c 50 9c c0 3c be 60 7f 3c
       -0.020016316 0.014457982 0.023512036 0.01558703
000010 ab 4a 1b bd 51 b4 93 bc 7a 73 a1 3c 2b c4 27 3d
       -0.037913006 -0.018030318 0.019708384 0.040958565
000020 f8 23 f9 3c b4 b9 10 bd 51 14 d3 bc 5a 7c e4 3c
       0.030412659 -0.03533335 -0.025766524 0.027891327
000030 d2 9a 77 bc 7a e2 09 bd 2a 99 00 bd bc 8b 9b 3c
       -0.015112596 -0.03366325 -0.03139607 0.018987529
000040 0c c6 89 3c 0a db d7 bc e9 b1 19 bd 22 95 bf 3c
       0.016818069 -0.026349563 -0.037523184 0.023386542
000050 f3 f9 8d 3b 13 6b 17 bd f8 66 ba bb 6c 14 4e bc
       0.004332775 -0.03696735 -0.0056885444 -0.012578111
000060 8f 64 bb bb 11 34 63 bc 29 28 ed 3c 3b 9a 87 3c
       -0.0057187746 -0.013867394 0.028949814 0.016553035
000070 0b 62 e4 ba 00 84 1b 3d 16 41 e3 3b 40 7e c7 bc
       -0.0017424239 0.037967682 0.006935249 -0.024352193
000080 01 bc fa bc 61 7f be 3b 82 da 1d 3d 5d ee c5 bc
       -0.030607225 0.0058135246 0.038538463 -0.024161512
000090 84 5c 86 bc 01 9d 26 bd 7a 63 b3 3b 48 28 2c 3d
       -0.016401537 -0.040677074 0.005474505 0.042030603
0000a0 20 0f 0c bb 87 07 f4 bc 7d 9a 90 3b 9e 09 1c 3c
       -0.002137132 -0.029788746 0.0044129477 0.009523777
0000b0 ad b4 0f 3d 12 3b a1 3c 2f 5b c9 39 e9 80 1e bd
       0.035084415 0.019681487 0.00038405645 -0.038697157
0000c0 34 b6 7a 3c f9 9e 09 bd d7 4d ea 3c 5c 78 22 bd
       0.01530223 -0.033598874 0.02860157 -0.039665565
0000d0 7f 0a ca 3b 42 1e d1 bc c4 d4 99 bb cb 1a 0c 3d
       0.006165802 -0.025527123 -0.004694553 0.03420524
0000e0 0b 60 f9 3c b4 f1 1e bd ee c0 1f 3d 46 b0 13 bc
       0.030441305 -0.038804725 0.03900235 -0.009014195
0000f0 a5 62 26 3d 0f da 0a bb 56 6f 86 bc 5a 50 0d 3c
       0.04062142 -0.0021187102 -0.016410511 0.008625114

weight f4 [64]
000000 a7 23 80 3f d1 12 80 3f 11 e2 7f 3f e3 13 80 3f
       1.001088 1.0005742 0.99954325 1.0006069
000010 03 e3 7f 3f 6d 29 80 3f d9 0f 80 3f d3 11 80 3f
       0.9995577 1.0012642 1.0004836 1.000544
000020 44 09 80 3f 20 e2 7f 3f 1c d5 7f 3f f7 11 80 3f
       1.0002828 0.99954414 0.99934554 1.0005482
000030 8a 1a 80 3f 20 b6 7f 3f e4 d1 7f 3f fd e0 7f 3f
       1.0008099 0.99887276 0.9992964 0.9995268
000040 03 19 80 3f 65 20 80 3f 2a 08 80 3f 74 ec 7f 3f
       1.0007633 1.0009886 1.0002491 0.99970174
000050 22 d1 7f 3f 9c 27 80 3f 0e 02 80 3f ab bd 7f 3f
       0.99928486 1.0012088 1.0000627 0.99898785
000060 c6 e6 7f 3f 6b d4 7f 3f a4 dd 7f 3f 56 e7 7f 3f
       0.9996151 0.999335 0.9994757 0.99962366
000070 e4 dd 7f 3f fc ee 7f 3f 13 01 80 3f 7d 27 80 3f
       0.99947953 0.99974036 1.0000328 1.0012051
000080 18 c6 7f 3f 13 03 80 3f c2 bc 7f 3f 0b 14 80 3f
       0.9991164 1.0000938 0.99897397 1.0006117
000090 17 bf 7f 3f 45 13 80 3f b2 9b 7f 3f 9b 03 80 3f
       0.99900955 1.000588 0.9984695 1.00011
0000a0 b1 18 80 3f da dc 7f 3f 85 e8 7f 3f 0b 35 80 3f
       1.0007535 0.9994637 0.9996417 1.0016187
0000b0 ab ca 7f 3f 2e 0a 80 3f 18 fd 7f 3f 0a db 7f 3f
       0.9991862 1.0003107 0.99995565 0.999436
0000c0 b1 d2 7f 3f f3 16 80 3f 8b 02 80 3f 34 c7 7f 3f
       0.99930865 1.0007004 1.0000776 0.99913335
0000d0 df 14 80 3f 15 05 80 3f e0 db 7f 3f b7 1e 80 3f
       1.0006369 1.0001551 0.9994488 1.0009373
0000e0 5e 17 80 3f c9 19 80 3f ec 2d 80 3f 85 e9 7f 3f
       1.0007131 1.0007869 1.0014014 0.999657
0000f0 28 16 80 3f cc 9d 7f 3f a3 10 80 3f 17 00 80 3f
       1.0006762 0.99850154 1.0005077 1.0000027

bias f4 [64]
000000 90 68 42 39 82 3b 31 39 9e c3 62 39 e2 d8 4d 3a
       0.00018540234 0.00016902204 0.00021625913 0.00078524475
000010 49 0e 2b ba 68 32 ae 3a f7 33 02 ba e1 43 f5 b9
       -0.0006525261 0.0013290169 -0.000496685 -0.00046780615
000020 72 10 95 39 a3 e9 76 ba 8f b4 d9 b9 d7 1c 57 3a
       0.00028431747 -0.000941897 -0.00041523992 0.00082058966
000030 b7 4c 6f ba 17 bc 3e ba 2f aa 08 3a f1 69 0f ba
       -0.0009128558 -0.00072759524 0.00052133476 -0.00054708036
000040 ec ac 8b 3a 2b 16 e0 39 4a 0a a1 b9 54 43 fa b7
       0.0010656393 0.00042741126 -0.0003071598 -2.9833674e-05
000050 af e1 e3 39 03 17 74 3a 35 ec 93 39 ce 14 63 b9
       0.0004346496 0.00093112903 0.00028214013 -0.00021656157
000060 73 5d d0 ba 72 8e 14 b8 ed fc da b9 b8 20 5d ba
       -0.0015896991 -3.5418612e-05 -0.00041768645 -0.00084353564
000070 0e 5c fa b9 aa 6b 40 b9 cf 34 b3 3a ad 3c 12 b9
       -0.00047752302 -0.00018350655 0.0013672354 -0.00013946249
000080 71 5c a0 39 d4 8d 57 b9 64 bf 7c ba 24 85 44 ba
       0.00030586452 -0.00020556833 -0.00096415565 -0.0007496646
000090 4e c4 19 ba ec a2 5f ba 0c af bd ba 7b 49 78 b9
       -0.00058657385 -0.0008531052 -0.0014471724 -0.00023678497
0000a0 e9 3f 29 3a b3 c3 6f ba d8 1d 5f b8 0b f2 f3 39
       0.0006456362 -0.0009146288 -5.3195137e-05 0.00046528908
0000b0 93 cd 1e ba 66 7d e0 b8 65 f6 58 ba a5 4c 82 3a
       -0.00060578546 -0.000107045096 -0.0008276462 0.0009941055
0000c0 4d d9 87 39 db 7a b4 38 93 c9 8c 3a f3 85 f7 b9
       0.00025911108 8.6059525e-05 0.0010741226 -0.0004721131
0000d0 50 32 2d ba c0 c9 76 3a 73 62 f8 39 44 f7 17 3a
       -0.00066069234 0.00094142184 0.00047375596 0.00057970383
0000e0 d1 d5 7a 3a 37 74 09 39 27 02 90 3a bd 63 c0 b9
       0.00095686043 0.00013108632 0.001098697 -0.00036695405
0000f0 9e 42 61 3a 04 01 c3 ba 70 8d c6 b8 64 79 a7 b9
       0.00085929956 -0.0014877622 -9.4677205e-05 -0.00031943165

running_mean f4 [64]
000000 ea cc c7 bd 11 dc 0f 3e c5 f1 bd 3e 67 7a 95 3d
       -0.09755881 0.14048792 0.37098518 0.07298737
000010 92 2b 9d be 94 7c 11 bd b4 78 cc be 65 6c a7 be
       -0.30697304 -0.035519198 -0.3993584 -0.32699886
000020 99 69 47 3d d2 45 5b be b5 a7 92 3c 25 e6 a5 3e
       0.04868469 -0.21413353 0.017902235 0.3240215
000030 b0 56 1d bf ef d4 c0 3d df 00 11 3f 5f ad 63 be
       -0.614604 0.09415614 0.56641954 -0.22234105
000040 a5 3e 00 be aa 85 9a bd 1f af af 3e 11 03 d6 3d
       -0.12523897 -0.07545026 0.34313294 0.104498036
000050 65 56 f1 bd 8d 23 ba be 53 ef 31 3f 27 eb fa 3e
       -0.117840566 -0.36355248 0.69505805 0.49007532
000060 d9 0b 5f 3d 49 c4 54 3d e4 ce d5 3d b5 81 17 3f
       0.05445466 0.051945005 0.10439852 0.5918229
000070 dc 26 27 be 36 7e 79 bd a0 7a ae be 36 54 b5 3c
       -0.16323417 -0.06091138 -0.3407793 0.022134881
000080 4c 55 16 be 87 87 2d bd f0 98 91 bc b9 68 fe 3d
       -0.14680976 -0.042365577 -0.017773122 0.12422318
000090 50 fb af bd 83 ec 95 be 36 4b 9b 3e 50 12 82 3e
       -0.08592856 -0.29282007 0.3033082 0.25404596
0000a0 fd 4d 59 3e eb be 2b 3d 9b d9 76 be df ca 85 be
       0.21221156 0.04193012 -0.24106447 -0.2613134
0000b0 55 8f 51 bc d2 45 28 be 7b 11 c6 3e a7 6c 8f 3d
       -0.012790521 -0.16432884 0.38685212 0.07003146
0000c0 45 6e 1d bd 8e d6 a1 3e 2a 54 db be fb 6f 33 be
       -0.03843524 0.31609005 -0.4283765 -0.17523186
0000d0 fc ad f6 3d 7c 9d 1f be 3e 50 63 be 8d 71 6b 3d
       0.12044904 -0.1558742 -0.22198579 0.057481337
0000e0 72 53 f0 bd ec 43 bd be 48 08 6f 3e 9e a7 10 bc
       -0.11734666 -0.36965883 0.23343003 -0.008829026
0000f0 ea e7 d6 3e 27 79 d1 3e ad 73 bf 3e 38 70 5c be
       0.4197381 0.40912744 0.3739294 -0.21527183

running_var f4 [64]
000000 b7 fd 7c 3d e7 7d 74 3e 67 b9 0d 3f 73 d1 32 3e
       0.0617654 0.23876153 0.55361027 0.17462711
000010 f8 0c b2 3e 11 f7 30 3d c7 15 10 3e be b2 db 3d
       0.3477552 0.04320437 0.14070807 0.10727452
000020 28 1e 2c 3e 06 e3 eb 3d fd aa 17 3e 44 fa 1b 3e
       0.16808379 0.11517911 0.1481132 0.15232188
000030 7a f8 c8 3d b3 d4 31 3e 8c 9b 03 3e 27 b3 d9 3d
       0.09813018 0.17366295 0.12852305 0.10629874
000040 c8 dd 90 3e 27 0d 0c 3e 77 55 f6 3d 75 fc 97 3e
       0.28294206 0.13676892 0.1202802 0.29684797
000050 85 87 86 3e ec 12 ad 3d 28 9e 77 3e 9f a4 f0 3d
       0.26275268 0.08450875 0.24181426 0.11750149
000060 39 c4 cb 3d 00 4e f6 3d 9f 11 13 3e 1a bb 00 3e
       0.09949536 0.12026596 0.1436219 0.12571374
000070 cd 3b 03 3e 59 0a 6f 3e ef ed da 3d 66 d0 0e 3e
       0.12815781 0.23343791 0.106899135 0.13946685
000080 a9 a4 dd 3d 28 49 b3 3d ae 6d 80 3d b3 e7 3d 3e
       0.10822422 0.08754188 0.0627092 0.18545417
000090 27 e8 c0 3d a6 9f ef 3d 7e 0c c6 3d 8b b0 84 3d
       0.094192795 0.117003724 0.096703514 0.064789854
0000a0 b3 73 13 3d d1 ab 90 3d 16 8e b9 3d e0 1b 75 3d
       0.03599901 0.070640214 0.09060304 0.059841037
0000b0 a2 db ba 3d c3 b4 d9 3d be 5e a1 3d f5 7d 04 3e
       0.09123923 0.10630181 0.07879399 0.12938674
0000c0 74 7b 75 3e a8 fa 43 3e df de bd 3d 23 b0 67 3e
       0.23972875 0.19138587 0.09271025 0.22625785
0000d0 5a 13 a2 3d af b8 d3 3d c9 c0 12 3e b8 13 8f 3d
       0.07913847 0.1033796 0.14331354 0.06986183
0000e0 5a f6 1f 3e 2c ca 87 3d d8 21 07 3e f6 07 0a 3e
       0.1562132 0.06630358 0.13196504 0.134796
0000f0 ab 4d d1 3d 0c dd a9 3d d4 8f fa 3d eb 58 d9 3d
       0.10219892 0.082941145 0.12234464 0.10612663

weight f4 [64, 64, 3, 3]
000000 a3 df 0d bb 18 33 76 bc c2 36 a7 bc de d6 ff 3c
       -0.002164819 -0.01502683 -0.020411853 0.031230386
000010 e1 5c 8f bc 89 5e 17 bc 1e 36 4f bc a1 c7 86 3c
       -0.017500343 -0.0092388475 -0.01264718 0.016452612
000020 56 df 03 3d 85 ff 09 3d 3e 1c 18 3d c8 f1 97 bc
       0.03219541 0.033690948 0.03713631 -0.018547907
000030 68 83 9f bc e1 a1 c5 3c 25 6d 73 bc 29 f6 28 3d
       -0.01947184 0.024125041 -0.014857565 0.04125038
000040 5c c3 0d 3d 33 b1 c1 3c 67 85 07 bd 2d 6f 5b 3a
       0.034610137 0.023644065 -0.033086207 0.00083707535
000050 44 ed d8 bc 47 13 d8 bc 13 aa 42 bc 8c a1 83 bc
       -0.026480325 -0.02637638 -0.011881369 -0.016068242
000060 c2 d7 fb bc 5f ce d8 bc b3 23 d4 3a 2c fa 59 3c
       -0.03074253 -0.026465593 0.0016184956 0.0133042745
000070 53 8f a3 3c 20 f7 a9 3c 60 10 3f 3a 40 69 34 3c
       0.019965803 0.020747721 0.0007288512 0.011011422
000080 b1 f7 12 bd 02 ae b0 3c 23 60 2a bc 9f f8 d4 bc
       -0.03588075 0.021567348 -0.010398897 -0.025997458
000090 f5 d1 8a bc 14 cf be 3c f3 cd a1 3c 61 c0 ec 3c
       -0.016945818 0.023292102 0.019751525 0.028900327
0000a0 9f c6 12 bd de 69 21 bd 77 e3 90 3c a0 51 bd 3c
       -0.03583395 -0.039407603 0.017686589 0.02311021
0000b0 f4 57 26 bd 22 f3 5b 3c 5e 73 27 3d 72 9b 27 bb
       -0.040611222 0.013424667 0.040881507 -0.002557483
0000c0 d4 1d 66 bc 30 c9 71 3c e3 7e 32 bc 08 af 96 3c
       -0.0140451975 0.0147574395 -0.01089451 0.018394008
0000d0 80 c8 60 bc 4d 49 f5 bc b6 2f ce bc 7a 04 e5 bc
       -0.013719678 -0.02994218 -0.025169235 -0.027956236
0000e0 f2 4d ec bb 5a 3d b2 3b f6 45 2d ba 3b 97 c3 3a
       -0.0072114402 0.0054394426 -0.0006609851 0.001492239
0000f0 45 d8 2c 3b 5a 60 f0 bb 3e d6 9f bc 31 1c f9 3c
       0.0026374024 -0.0073357048 -0.019511338 0.03040895
000100 6c 6d 2b bd 90 d0 5e 3c e5 c0 9a bc b5 0c 60 3c
       -0.0418524 0.01359953 -0.018890807 0.013674905
000110 4d e8 ad bb 2b 3a 99 3c 3a c6 00 3c e1 ba 29 bd
       -0.0053072334 0.018704494 0.007859761 -0.041437987
000120 0b 70 12 bd 03 b4 2c 3d c2 ef 99 3b 80 c0 44 3c
       -0.035751384 0.04216386 0.004697771 0.012008786
000130 11 56 0e 3d 7b ac 7b 3c df 7e 9f 3c 6f a3 b2 3c
       0.034750048 0.015360947 0.019469677 0.021806447
000140 45 be 29 bd 1a 74 7c 3c f4 60 06 3d 77 1b 46 3c
       -0.04144122 0.01540854 0.032807305 0.012091509
000150 a8 6f ce 3c a1 42 19 3d 1d 2d 8d 3c 44 2d 32 3c
       0.025199726 0.037417058 0.017233426 0.01087505
000160 68 fe 15 3d e9 cd 3c 3b 4e db 0f bd 4d db a5 bc
       0.036619574 0.0028809255 -0.035121255 -0.020246172
000170 a2 d3 9b bb 0a e5 df 3b 0a c8 b3 3b 13 04 ab bc
       -0.004755453 0.0068327235 0.005486493 -0.020875966
000180 a7 29 29 3d 2a 36 0f bd b7 1e 76 3c 0e 5d ac 3c
       0.04129949 -0.034963764 0.015021971 0.021040466
000190 18 31 ba bc db 1e a6 b9 29 30 a6 bc 55 1e bc bc
       -0.022728488 -0.00031684976 -0.020286636 -0.022963682
0001a0 98 17 f2 3c 65 00 9b bb 78 4c eb bb 44 c2 68 3c
       0.029552266 -0.0047302716 -0.0071807466 0.014206473
0001b0 b8 0d 24 3b 5d c8 b3 3c af d6 db 3c ee cb 8b bc
       0.002503259 0.021946127 0.026835768 -0.017065015
0001c0 d9 ec 57 3c 2f 8f d0 3b 9f a8 ea bc e0 74 5f bc
       0.0131790275 0.006364725 -0.028644858 -0.013638705
0001d0 c0 8f ba bc fa 18 88 3b 3e 8a ae 3c 61 4c 2d bc
       -0.022773623 0.004153368 0.021306153 -0.010577292
0001e0 59 d6 ea bc 64 02 27 3d 38 39 f7 bc 2f d8 1d 3d
       -0.028666662 0.040773764 -0.030178651 0.038536247
0001f0 78 8b 06 bd b6 3e 27 bd 05 56 25 3d 58 c2 bb bc
       -0.03284785 -0.04083129 0.040365238 -0.022919819
000200 ab f0 14 3c 31 39 31 3d 80 f8 f4 3b 07 9d 03 3d
       0.009090583 0.043267433 0.0074759126 0.032132175
000210 84 6a 69 3c b0 46 b8 3c 93 d8 8a bc fb 60 91 3c
       0.014246587 0.022494644 -0.016948974 0.01774644
000220 a2 60 90 b9 19 f8 08 bd 79 b4 e9 bc e0 c1 2f bc
       -0.00027537817 -0.03343973 -0.028528439 -0.010727376
000230 a4 7e 1a 3d 85 70 80 bc 39 a6 28 bc f2 a4 00 3d
       0.03771843 -0.015678653 -0.010293537 0.031407304
000240 ff 3e f2 3c 2f 1d 24 bd 43 d6 9b bc ed a0 19 3d
       0.029571055 -0.040066894 -0.019023066 0.037506986
000250 a9 43 6d 3b 6f 9c 8b ba b2 ee 28 3d a6 76 e6 3a
       0.0036203659 -0.0010651479 0.041243263 0.0017582967
000260 56 80 e9 39 06 ea 80 bc f0 a0 a0 bb 38 97 03 3d
       0.0004453684 -0.015736591 -0.0049019977 0.032126635
000270 e7 18 1e bc 3b 9d 27 3d 00 51 3e 3c 7a 43 19 bd
       -0.009649492 0.04092143 0.011615992 -0.037417866
000280 6c fc 10 bc da 1d e0 bc 6d 74 26 3d b3 f3 af bc
       -0.008849245 -0.027357984 0.040638376 -0.02147851
000290 58 91 72 3c 23 89 65 3a 19 80 e2 3c 49 95 5e bc
       0.01480516 0.00087560917 0.027648972 -0.013585397
0002a0 61 f4 1e bd d8 61 f0 bc 4b 3e 8e 3b 6e f2 b7 3c
       -0.038807277 -0.02934353 0.004340922 0.022454467
0002b0 2e d7 15 bc c9 ca 80 bb 0a f6 25 bd af 08 06 3d
       -0.009145541 -0.003930424 -0.040517844 0.032723125
0002c0 3f a2 e6 bc 61 53 62 bb 28 8b 8b 3c ee d5 6d bb
       -0.028153537 -0.003453456 0.017034128 -0.0036290842
0002d0 16 c4 97 3c 4f 4e 84 3c 15 38 12 3d 24 3d df bc
       0.018526118 0.016150622 0.035698015 -0.027250834
0002e0 54 b0 23 bd 3f d1 d2 3c f6 36 15 bd d9 03 bd 3c
       -0.03996308 0.025734542 -0.036429368 0.023073124
0002f0 04 d2 2a bc ab 13 8f 3c 3b 3f 25 bd 76 2d c2 bc
       -0.010426048 0.017465433 -0.040343504 -0.023703318
000300 5d 2f 16 bd d1 12 b7 3c ac 07 21 bd 8d eb 3d 3c
       -0.036666263 0.02234784 -0.039313957 0.011591804
000310 d5 df 8f bc 79 b5 01 3d 17 d3 26 bd 2d 66 c5 bc
       -0.017562786 0.031667206 -0.040728655 -0.024096573
000320 93 b3 0f 3d 24 24 64 ba e4 98 53 bc 4b 66 ff 3c
       0.035083365 -0.0008702895 -0.01291487 0.031176707
000330 5a 26 a7 3c 83 ad 62 3c 80 0c f2 3c f1 6d 52 bc
       0.02040403 0.013835314 0.029546976 -0.012843595
000340 47 fc 59 bb f6 c6 69 3c 42 eb 92 3c f4 23 10 bd
       -0.0033261941 0.014268627 0.017934445 -0.035190538
000350 1e df e1 3c 4f 08 db bc 82 ab a1 3c ba f5 4d bc
       0.02757221 -0.02673736 0.019735102 -0.012570793
000360 9a b1 85 3c 12 ee a6 bc b3 8d 26 bd 8b e7 04 3d
       0.016320039 -0.020377193 -0.04066248 0.03244738
000370 a1 27 19 3d 86 14 0c bc 56 25 79 bc b8 19 89 3c
       0.03739131 -0.008549815 -0.0152066555 0.016735896
000380 c1 94 1d 3c 77 c3 a4 3b 93 7e 20 3d 31 b3 1d 3d
       0.009617985 0.005028184 0.03918321 0.03850097
000390 cd 37 21 bd 90 4e 19 3d c9 e7 5b bc 57 ca 87 3c
       -0.039359856 0.03742844 -0.013421961 0.016575975
0003a0 7f b1 13 3b 09 eb a9 3c dd 3c 74 bc 60 14 2c 3d
       0.0022536216 0.020741956 -0.014907089 0.04201162
0003b0 30 45 f5 3c 42 a4 12 3c 73 f8 08 bd 04 46 67 bc
       0.029940218 0.008950295 -0.033440065 -0.014115814
0003c0 d5 e2 dd 3c 79 f0 9a bc 38 02 e0 bb 37 f6 00 3d
       0.027085701 -0.018913494 -0.006836202 0.03148481
0003d0 2d a3 e7 3c 56 e5 24 3c e3 96 11 bc f4 d4 5f bc
       0.02827605 0.010064444 -0.008886072 -0.013661612
0003e0 bb a4 1d 3c fa 83 20 38 5c 0f 18 3d 1b c1 1d bd
       0.009621794 3.8269885e-05 0.037124023 -0.038514238
0003f0 a8 38 a2 bc 33 fd 19 3d 4d 06 06 bc d7 42 f0 bc
       -0.019802406 0.037594985 -0.008180213 -0.029328747

bias f4 [64]
000000 61 f2 fb 3b 3e 0f a1 bc e4 04 1f bb df 57 17 bd
       0.007688806 -0.019660588 -0.002426439 -0.036949035
000010 aa 82 dc ba e2 2c 2a bd 87 80 2a 3d 34 e1 14 bd
       -0.0016823609 -0.04154671 0.04162648 -0.036347583
000020 9a 65 cb ba 2b d9 d8 3c dc 59 d4 bb b6 6e 22 bc
       -0.001551795 0.026470741 -0.0064804386 -0.009914091
000030 5b 58 8c bc 1d 96 ab bb a9 79 71 bc 54 2c f6 3c
       -0.017131975 -0.0052364008 -0.014738479 0.030050434
000040 15 d9 8e 3c 20 4b 7d 3b 7f 03 21 3d ec d9 08 bd
       0.017437497 0.0038649514 0.039309975 -0.03341095
000050 f5 57 2a 3d 7a 1d b7 3c 5d 7e 2d bc c9 d3 24 bd
       0.04158779 0.022352923 -0.010589209 -0.040241037
000060 b7 57 7d bc 8a db f5 b8 14 de b4 3c fc 18 2b 3c
       -0.015462807 -0.00011723403 0.022078551 0.010442968
000070 39 b5 69 3c 07 eb 8b bc 40 f5 1d bc 82 1a 26 3d
       0.014264398 -0.017079843 -0.009640992 0.040552624
000080 65 53 bc 3c 8c 16 dc 3c 97 c8 96 bb f2 a7 f6 bc
       0.022988984 0.02686622 -0.004601549 -0.03010938
000090 ba d1 cd 3a 35 90 a0 3c 6c ba 03 3c 59 5a 1b 3d
       0.0015702762 0.019600013 0.008040052 0.03792796
0000a0 49 3c ef bc 75 ef 0f 3d f6 76 94 bc 06 d1 f1 bb
       -0.02920355 0.035140473 -0.018123131 -0.007379654
0000b0 64 3f aa bb 35 19 b9 bc 02 da c7 3c e6 64 c7 3c
       -0.005195545 -0.022595027 0.024395946 0.024340104
0000c0 d0 e8 b9 bc 13 cb f0 3c 4a 2d 02 bd 9a 13 7a 3b
       -0.022694021 0.029393708 -0.031781472 0.0038158656
0000d0 ab 16 07 bc 65 14 86 bc e6 a0 11 bd 3d 64 65 3c
       -0.008245151 -0.016367147 -0.035553835 0.014000949
0000e0 06 de 7e 3c 07 75 0a bd 5b 37 9f bc a8 b3 aa bc
       0.015555864 -0.033803012 -0.019435575 -0.02083762
0000f0 d3 eb ab bc b0 a2 88 3c 0a 67 a8 3b d7 5b c5 3c
       -0.020986473 0.016679138 0.0051392363 0.024091644

weight f4 [64]
000000 43 1f 80 3f 31 bc 7f 3f 11 17 80 3f 14 ea 7f 3f
       1.000954 0.9989653 1.0007039 0.9996655
000010 1f 0e 80 3f 1b e0 7f 3f 25 2f 80 3f d0 a2 7f 3f
       1.000431 0.9995133 1.0014387 0.9985781
000020 07 fe 7f 3f e4 dd 7f 3f 3d f1 7f 3f 3e a2 7f 3f
       0.9999699 0.99947953 0.99977475 0.99856937
000030 f1 1d 80 3f 49 09 80 3f bb 10 80 3f 77 0c 80 3f
       1.0009137 1.0002834 1.0005106 1.0003804
000040 58 d1 7f 3f 44 ce 7f 3f f7 13 80 3f 2f e0 7f 3f
       0.9992881 0.9992411 1.0006093 0.9995145
000050 c7 21 80 3f fd 04 80 3f 20 20 80 3f ed 09 80 3f
       1.0010308 1.0001522 1.0009804 1.0003029
000060 e1 22 80 3f 9e dd 7f 3f 3c 12 80 3f 82 12 80 3f
       1.0010644 0.99947536 1.0005565 1.0005648
000070 54 1e 80 3f 0f dc 7f 3f 2d ce 7f 3f 29 c7 7f 3f
       1.0009255 0.9994516 0.99923974 0.9991327
000080 cd fc 7f 3f e8 00 80 3f 75 d9 7f 3f f4 07 80 3f
       0.9999512 1.0000277 0.9994119 1.0002427
000090 7e 02 80 3f 7e 07 80 3f f8 de 7f 3f 1a 1b 80 3f
       1.000076 1.0002286 0.999496 1.0008271
0000a0 25 03 80 3f b5 e0 7f 3f 99 21 80 3f cb 13 80 3f
       1.000096 0.9995225 1.0010253 1.000604
0000b0 0a e9 7f 3f 88 b9 7f 3f 3b 21 80 3f 35 ff 7f 3f
       0.99964964 0.99892473 1.0010141 0.9999879
0000c0 af 14 80 3f 2d 22 80 3f 16 d6 7f 3f fd 02 80 3f
       1.0006312 1.001043 0.99936044 1.0000912
0000d0 13 f0 7f 3f fd 18 80 3f cc d2 7f 3f 48 be 7f 3f
       0.999757 1.0007626 0.99931026 0.9989972
0000e0 8e 04 80 3f e0 1d 80 3f c3 1d 80 3f 43 0d 80 3f
       1.000139 1.0009117 1.0009083 1.0004047
0000f0 4b 28 80 3f f3 e9 7f 3f 4f 17 80 3f 8f bf 7f 3f
       1.0012296 0.99966353 1.0007113 0.9990167

bias f4 [64]
000000 51 57 1f 3a dc 1d 00 ba 07 7c ec 39 43 7f 8f b9
       0.000607838 -0.0004887262 0.00045105835 -0.00027369903
000010 f5 39 10 3a 4a 29 34 ba e8 67 10 38 85 1b b5 ba
       0.00055018003 -0.00068726076 3.4429046e-05 -0.0013817406
000020 2d 69 c2 38 ef 6e 48 b9 6a 0b c4 38 96 72 8e ba
       9.2702314e-05 -0.00019114812 9.348134e-05 -0.001086789
000030 b4 95 b6 38 7d 21 81 b9 92 ac 26 b9 2e 73 7e 3a
       8.706321e-05 -0.00024629748 -0.00015895281 0.0009706494
000040 52 26 75 39 a0 12 bf b9 a9 28 73 39 58 22 6f 3a
       0.00023379296 -0.00036444236 0.00023189433 0.0009122244
000050 a1 9e 11 39 0b fa 40 ba b5 4d 69 3a 6f 80 b7 39
       0.00013887371 -0.0007361478 0.0008899824 0.0003500017
000060 db 96 fc b9 a4 7f 59 39 7e 7d 03 ba 8e c2 41 3a
       -0.00048177582 0.00020742283 -0.0005015953 0.00073913566
000070 84 34 39 3a 64 3b 44 ba 3b 31 95 ba 10 de 00 ba
       0.00070650154 -0.00074856565 -0.001138247 -0.00049159024
000080 4a bd 45 ba d4 69 bd 3a 7d 8c 71 ba 32 74 49 3a
       -0.000754316 0.0014451095 -0.0009214355 0.0007684856
000090 2a 31 a4 b9 0a 48 91 b9 75 09 81 38 c0 96 aa 39
       -0.00031317148 -0.00027710228 6.152961e-05 0.00032537244
0000a0 fe 4e 82 b9 ad b0 cf 39 b8 27 12 3a b7 62 0f 3a
       -0.00024854386 0.0003961375 0.00055753766 0.0005469727
0000b0 c5 a3 37 ba ac 58 97 ba ac 02 90 39 6c 02 d8 39
       -0.00070052996 -0.0011546812 0.0002746781 0.00041200535
0000c0 1b c3 a5 38 72 ea 5f ba 4f b2 05 39 41 fa 03 3a
       7.904154e-05 -0.000854171 0.00012750294 0.0005034544
0000d0 4f 53 b0 b9 49 1a 54 3a f3 08 51 39 e6 67 ae b9
       -0.00033631406 0.0008091075 0.00019935127 -0.00033265277
0000e0 7b 8f 27 ba 50 01 2c 3a cf e5 8a ba d0 ac 50 39
       -0.00063919247 0.0006561475 -0.0010597053 0.00019900803
0000f0 e8 55 63 3a d4 26 50 b9 c0 4a e6 39 7f fd fa 38
       0.0008672164 -0.0001985089 0.00043924712 0.00011968146

running_mean f4 [64]
000000 97 5c 85 3e 1b 9f 5d 3b 55 f5 3f be de ce 62 3c
       0.26047203 0.0033816758 -0.1874593 0.013843266
000010 2e d1 78 3c 31 52 85 be 14 f1 29 3d e6 56 2a be
       0.015186591 -0.2603927 0.041489676 -0.16634712
000020 6f 4b 80 3b 5a e4 9f bd a6 e7 34 bf 34 3c 96 bd
       0.0039152424 -0.078072265 -0.7066597 -0.073357016
000030 80 1e 52 3d d7 d7 85 3e a1 c7 02 3f a9 a2 27 3e
       0.05129862 0.26141235 0.5108586 0.16370644
000040 37 f0 2a 3e eb b1 ba 3e f6 73 db bd 38 88 8a 3e
       0.16693197 0.36463866 -0.10715477 0.27057052
000050 7c c1 8f 3e 7a 1e 89 3e e5 bc 90 be 16 76 08 3f
       0.28077304 0.26781064 -0.28269115 0.53305185
000060 a3 d0 8d 3e 76 b1 a9 bd f0 d9 98 be f1 af 3c bd
       0.2769824 -0.08285801 -0.29853773 -0.04606623
000070 a0 b2 15 be f3 b3 aa be 55 f9 9c be c1 da 9f 3d
       -0.14618921 -0.33340415 -0.30658975 0.07805396
000080 86 06 b5 3d 22 c1 a8 be 12 4b b1 3e 6f c3 27 bf
       0.08839135 -0.3295985 0.34627587 -0.65532583
000090 bb e0 1e 3f 6f 9f 3a be da b4 00 3d 7e 02 59 3e
       0.6206166 -0.18224882 0.031422473 0.21192357
0000a0 84 ce 00 be f7 22 ae 3e d4 39 cf 3e 19 68 df be
       -0.1257878 0.3401105 0.40473807 -0.43634108
0000b0 cc b4 fd 3e f1 c3 f0 3b 4d 1b c8 be e1 1f c6 be
       0.49552 0.007347577 -0.3908333 -0.38696197
0000c0 c4 91 41 3e a7 5f bd 3d 1d 55 1d 3e 6e f5 6c bd
       0.18903261 0.0924676 0.153645 -0.057851247
0000d0 e2 47 e1 3d f8 72 40 be c2 a7 9c 3d 9b 21 0c 3f
       0.11000039 -0.18793857 0.07649185 0.5473878
0000e0 8f e9 da 3e 02 74 77 3e 3f d6 87 3e bf 36 d7 be
       0.42756316 0.24165347 0.26530644 -0.42033955
0000f0 7b 01 65 bf b7 4f f8 3d 14 66 34 be ca 31 bb 3e
       -0.89455384 0.121245794 -0.17617065 0.36561424

running_var f4 [64]
000000 8a 15 4b 3e eb e0 e0 3d 00 df 4b 3e 3a 19 20 3e
       0.19832435 0.109804 0.19909286 0.15634623
000010 80 42 14 3e b6 43 36 3e 1b da 18 3e a6 bc 3f 3e
       0.14478493 0.17799267 0.1492695 0.18724307
000020 61 e6 2e 3e 21 7f 0d 3e 11 5d 92 3e c6 76 ca 3d
       0.1708007 0.13818027 0.2858663 0.098859355
000030 e9 8a 8c 3d 45 c8 23 3e 5b 50 1f 3e 0e d6 24 3e
       0.068624325 0.15994366 0.15557997 0.1609728
000040 f7 cd e8 3d 4a b4 3e 3e 65 e5 d9 3d 0f 16 00 3e
       0.1136741 0.18623462 0.10639457 0.12508415
000050 60 58 10 3e ee f2 f0 3d 06 6d 17 3e 6a 67 81 3e
       0.14096212 0.11765085 0.14787683 0.2527421
000060 ee 2f f3 3d 63 64 9d 3e 96 43 08 3e 5c 47 f8 3d
       0.11874376 0.3074065 0.13307032 0.12122986
000070 62 61 db 3d 89 12 cb 3d ac 33 36 3e 97 28 05 3e
       0.10711934 0.09915645 0.17793149 0.13003765
000080 7d 4e 1d 3e 9a cb 06 3f 64 3d 93 3e 68 28 1e 3e
       0.15361972 0.5265442 0.28757775 0.15445101
000090 4a 88 16 3e 25 98 9e 3d e6 5e 5b 3e 9a a8 d4 3d
       0.14700428 0.07743863 0.2142292 0.10383721
0000a0 62 56 d8 3d 4e 12 0c 3e 7b 3f d6 3d 2b be 19 3e
       0.10563351 0.13678858 0.10461327 0.1501395
0000b0 0f 3c 47 3e ef ff 9b 3e 87 93 da 3d 9d 52 cb 3d
       0.19456504 0.304687 0.1067267 0.099278666
0000c0 00 8d ef 3d 00 2e 2b 3e 48 1a 20 3e 32 7b 83 3d
       0.116968155 0.16716766 0.15635026 0.06419982
0000d0 dd e9 5f 3e ee d6 10 3e 49 b9 94 3e 54 ec 18 3e
       0.21866556 0.14144489 0.2904761 0.14933902
0000e0 ee af b8 3d d4 a1 85 3e 09 ae a1 3d 9f b1 84 3d
       0.09017931 0.26100028 0.07894523 0.06479191
0000f0 7e 0c 7e 3e 41 22 08 3e 62 93 d1 3d 7e 33 8b 3e
       0.24809453 0.13294317 0.10233189 0.27187723
