proto2/scripts/train/few_shot/results/trainval/best_model.pt (torch, 765287 bytes, 36 tensors)

weight f4 [64, 1, 3, 3]
-0.31769753 -0.06511101 -0.1615145 -0.08738043 -0.2917866 0.1331176 -0.29813746 -0.019367691
0.116589494 -0.11079793 0.18810293 0.04135187 0.18474029 0.20908074 -0.1499084 0.12333684
-0.1449736 0.103978306 -0.1765089 0.15149997 0.06373095 -0.13236427 -0.16780463 0.081414744
0.3099804 0.15674011 -0.038799398 -0.020829938 0.18485917 -0.2387143 0.105551675 -0.11645621
0.18452115 -0.123398535 0.01338948 0.106314905 0.23202373 -0.04779217 0.30620518 -0.27915597
-0.05890455 -0.33062443 0.029486576 0.09481876 -0.13258252 0.13843161 -0.053687222 -0.29318404
0.25165084 0.20640165 0.16811754 0.2584005 0.12418677 0.17865214 0.27936617 -0.066070095
-0.25828314 -0.16208728 -0.042421263 -0.032869752 -0.0013383165 0.19216174 0.107889354 -0.24805643
-0.100569956 -0.080669045 0.20008856 -0.1231043 -0.14033143 -0.052976947 -0.084063075 -0.08067422
-0.3253355 0.2987654 0.18157922 -0.15473425 -0.20564876 0.015323511 0.18905376 -0.23856914
-0.124533854 0.14053471 -0.21305177 -0.034495775 -0.25120303 0.3091118 0.1817494 -0.30775073
-0.18352614 0.11998283 0.020219127 0.09043306 -0.27348334 -0.17209941 0.1562865 -0.25157857
-0.06701021 0.14898282 0.17416506 0.016559992 0.09560762 0.15046757 -0.040620595 -0.09128803
0.2558265 0.32380632 0.15500566 -0.14335597 -0.2855517 -0.32324713 0.008546743 -0.12587388
-0.082372375 -0.04594639 0.31821147 0.32109833 -0.027235663 -0.10617978 0.15589577 -0.032406706
-0.32364547 0.1038598 0.31469062 -0.26621315 -0.075764135 0.068293326 -0.26523897 -0.28249273
0.2530871 -0.11579668 0.1962666 0.03303386 0.08166747 -0.22259985 -0.07028642 0.21593295
0.15078393 -0.09873189 0.039250437 0.2527466 -0.29623646 0.21091984 -0.10361761 -0.07157057
0.15532944 -0.2816174 -0.055451043 0.31467253 0.115752846 -0.12833273 -0.07693668 0.2594495
0.12226443 0.22555207 -0.21420524 0.09661315 0.055278473 0.055991404 0.31293252 0.18234175
0.22715817 0.14777909 0.14144862 -0.051302075 -0.2864945 -0.28483978 -0.20858423 -0.21562037
0.15596798 0.10205838 -0.09643044 -0.25386393 0.32705277 0.24874131 0.15882032 0.33017963
-0.17870961 -0.19052593 -0.19649643 -0.017116575 -0.2965936 0.2612777 0.0046248278 0.16304824
-0.1881361 -0.04252452 0.041434675 -0.09629863 0.3093731 -0.15325847 0.10460425 -0.22719519
-0.039205972 -0.08568391 0.14438418 0.23090051 0.08202834 -0.031485964 -0.08491346 0.26214787
-0.078269005 0.23723404 -0.15105331 0.2723725 0.33246517 0.23285833 0.19198878 0.1253077
-0.16287151 0.0046703666 0.11535524 -0.0873819 0.057549015 0.19524834 -0.30840895 -0.30411232
-0.20154357 0.040598333 -0.053935524 0.07355362 -0.07674566 -0.21294029 0.045589913 0.22848535
-0.19746701 0.29244372 0.084935375 0.32711932 -0.30736426 -0.31694058 0.1109421 -0.31355223
-0.27301198 0.16895337 0.16241065 -0.30130792 0.24388652 -0.06139835 0.25299603 -0.1897332
-0.31865048 -0.2149988 -0.048580196 -0.3315725 -0.021429263 -0.16978207 -0.0733325 0.0029651318
0.018981177 -0.3256489 0.17370236 -0.20312849 0.19738196 0.3002165 -0.11769461 0.034798518
00000000: 40a9 a2be ec58 85bd 0f64 25be 83f4 b2bd
00000010: 0e65 95be fb4f 083e 79a5 98be fea8 9ebc
00000020: 79c6 ee3d 06ea e2bd 0e9e 403e 9460 293d
00000030: 8f2c 3d3e 4319 563e 9681 19be 0698 fc3d
00000040: f673 14be 94f2 d43d c0be 34be cf22 1b3e
00000050: 5f85 823d 808a 07be fad4 2bbe c6bc a63d
00000060: c0b5 9e3e 7b80 203e 1eec 1ebd 8ca3 aabc
00000070: b94b 3d3e 8571 74be 7a2b d83d 9880 eebd
00000080: 1df3 3c3e 5fb8 fcbd 8d5f 5b3c a1bb d93d
00000090: a197 6d3e b9c1 43bd edc6 9c3e 88ed 8ebe
000000a0: e645 71bd 9b47 a9be d58d f13c 5730 c23d
000000b0: b6c3 07be 04c1 0d3e 22e7 5bbd 381c 96be
000000c0: 61d8 803e f45a 533e 0127 2c3e 124d 843e
000000d0: a255 fe3d 96f0 363e 1509 8f3e c24f 87bd
000000e0: b03d 84be 35fa 25be ebc1 2dbd 6fa2 06bd
000000f0: 736a afba 0cc6 443e 18f5 dc3d 8102 7ebe
00000100: 9ff7 cdbd d035 a5bd 04e4 4c3e 1b1e fcbd
00000110: 0bb3 0fbe 5bfe 58bd 4329 acbd 8738 a5bd
00000120: 6092 a6be c7f7 983e e7ef 393e a872 1ebe
00000130: 9795 52be 770f 7b3c 4f97 413e 784b 74be
00000140: 9b0b ffbd 55e8 0f3e 3e2a 5abe 714b 0dbd
00000150: af9d 80be e743 9e3e 841c 3a3e 8191 9dbe
00000160: 47ee 3bbe 8fb9 f53d 95a2 a53c f834 b93d
00000170: 0206 8cbe d43a 30be 9109 203e e8ce 80be
00000180: a63c 89bd f48e 183e 5358 323e d2a8 873c
00000190: eecd c33d 2c14 1a3e c861 26bd 38f5 babd
000001a0: b1fb 823e f1c9 a53e ceb9 1e3e e8cb 12be
000001b0: d533 92be a680 a5be a307 0c3c 15e5 00be
000001c0: d9b2 a8bd 4832 3cbd 9dec a23e 0067 a43e
000001d0: 531d dfbc c974 d9bd 24a3 1f3e e5bc 04bd
000001e0: dcb4 a5be 72b4 d43d 211f a13e 174d 88be
000001f0: 3a2a 9bbd 5fdd 8b3d 67cd 87be e3a2 90be
00000200: a294 813e cf26 edbd 1dfa 483e 834e 073d
00000210: 4641 a73d 37f1 63be 54f2 8fbd 871d 5d3e
00000220: 1a67 1a3e f233 cabd 11c5 203d 0168 813e
00000230: 4eac 97be 5ffb 573e 7835 d4bd 9793 92bd
00000240: ae0e 1f3e 2830 90be a220 63bd c21c a13e
00000250: d40f ed3d a869 03be fa90 9dbd 91d6 843e
00000260: c665 fa3d 1ff7 663e 9e58 5bbe 1ddd c53d
00000270: ae6b 623d 3e57 653d b138 a03e ccb7 3a3e
00000280: 279c 683e 6753 173e e8d7 103e 2022 52bd
00000290: 68af 92be 85d6 91be 1b97 55be 96cb 5cbe
000002a0: 12b6 1f3e fc03 d13d 537d c5bd 74fa 81be
000002b0: 7673 a73e 0bb6 7e3e cba1 223e 4e0d a93e
000002c0: a7ff 36be 3b19 43be 5c36 49be 0f38 8cbc
000002d0: 1edb 97be 31c6 853e de8b 973b 1ef6 263e
000002e0: c0a6 40be 312e 2ebd 68b7 293d 3738 c5bd
000002f0: 2766 9e3e caef 1cbe c13a d63d dba5 68be
00000300: 7196 20bd 0c7b afbd 72d9 133e 2f71 6c3e
00000310: 79fe a73d 6df7 00bd 1ce7 adbd 3f38 863e
00000320: 804b a0bd 7bed 723e b8ad 1abe 6974 8b3e
00000330: e038 aa3e 6a72 6e3e b598 443e a950 003e
00000340: cac7 26be e009 993b 5e3f ec3d 48f5 b2bd
00000350: 84b8 6b3d 2eef 473e c7e7 9dbe 9cb4 9bbe
00000360: 7061 4ebe 704a 263d 7feb 5cbd 48a3 963d
00000370: d42c 9dbd 050d 5abe 7dbc 3a3d 10f8 693e
00000380: cb34 4abe 2fbb 953e 99f2 ad3d 2f7c a73e
00000390: d95e 9dbe 0946 a2be 9d35 e33d eb89 a0be
000003a0: 3ac8 8bbe 1d02 2d3e fa4e 263e 0845 9abe
000003b0: 63bd 793e d67c 7bbd b288 813e 6c49 42be
000003c0: 2826 a3be a528 5cbe 07fc 46bd dfc3 a9be
000003d0: 6c8c afbc 5adb 2dbe 5a2f 96bd a852 423b
000003e0: 6a7e 9b3c 74bb a6be 08df 313e ea00 50be
000003f0: 7f1e 4a3e fab5 993e df09 f1bd e488 0e3d

bias f4 [64]
-0.12032457 0.28152865 -0.28784674 -0.113316774 0.13680163 0.24367689 -0.24995695 -0.23073691
0.20120862 0.22670072 0.21707892 0.19135849 -0.28419077 0.11027277 -0.012314602 0.05109654
-0.1273552 0.32253638 -0.018013073 -0.22873607 0.17316909 -0.0072209053 -0.20757224 -0.14702341
-0.21032092 0.065566145 0.071624085 -0.09243901 0.026881084 -0.1809607 -0.33089632 -0.007870832
0.31613088 -0.24825141 0.06516023 -0.16720706 -0.0529445 0.077460654 -0.16419765 -0.28678274
-0.0050114957 -0.025313027 0.24098778 0.13244238 0.19198439 -0.20979434 -0.31195256 -0.20110463
-0.2674064 -0.011499859 -0.099502236 -0.030961571 -0.093977205 -0.05553195 0.074026905 0.3266533
-0.068907276 0.27337423 0.29983822 0.15967986 -0.08818114 0.089488395 -0.2181665 -0.028187249
00000000: ba6c f6bd 8624 903e a660 93be a012 e8bd
00000010: ba15 0c3e 6f86 793e b7f4 7fbe 4c46 6cbe
00000020: a209 4e3e 3c24 683e f049 5e3e 7bf3 433e
00000030: 7481 91be b1d6 e13d 2fc3 49bc 9b4a 513d
00000040: 6769 02be 7d23 a53e 2790 93bc ca39 6abe
00000050: 3d53 313e 589d ecbb d18d 54be 4e8d 16be
00000060: 5e5e 57be 8b47 863d a6af 923d aa50 bdbd
00000070: b835 dc3c c34d 39be 3e6b a9be aaf4 00bc
00000080: e8db a13e 9e35 7ebe ba72 853d 5438 2bbe
00000090: 55dc 58bd b1a3 9e3d 6e23 28be 30d5 92be
000000a0: 7937 a4bb 445d cfbc 80c5 763e fa9e 073e
000000b0: 8e97 443e 54d4 56be 3fb8 9fbe 5fee 4dbe
000000c0: 7ee9 88be e869 3cbc d4c7 cbbd 1fa3 fdbc
000000d0: 1f77 c0bd 7875 63bd 6b9b 973d 1a3f a73e
000000e0: 421f 8dbd b5f7 8b3e 6584 993e 1e83 233e
000000f0: 5098 b4bd b145 b73d 0a67 5fbe f2e8 e6bc

weight f4 [64]
1.0011551 0.9981933 1.0008627 1.0000631 1.0020812 0.99613094 1.0028459 1.0010593
1.0029256 1.0008172 1.0015244 0.9979376 1.0005982 0.99954677 1.003043 0.99897146
1.0031444 0.9983583 0.9994946 1.0029808 1.0023227 0.9994285 0.9969472 1.0046077
1.0016197 1.0010471 1.0007275 0.9967265 0.998782 0.9988128 0.9970769 1.0000764
1.0053376 0.9948508 1.0017661 0.99409705 0.99953455 1.0014404 0.99999064 1.0024899
0.99895185 0.9961391 0.9979124 1.0030748 1.0016342 1.000279 1.0010124 1.0001256
0.9970418 0.99782336 0.99885714 1.0006429 0.9974086 1.0007433 0.99532247 0.9996816
0.99837494 1.0053253 0.9945299 1.0012227 0.99937683 0.9998416 1.0017309 1.0003384
00000000: da25 803f 9989 7f3f 451c 803f 1102 803f
00000010: 3244 803f 7002 7f3f 415d 803f b622 803f
00000020: de5f 803f c71a 803f f431 803f d778 7f3f
00000030: 9a13 803f 4ce2 7f3f b763 803f 98bc 7f3f
00000040: 0967 803f 6994 7f3f e1de 7f3f ad61 803f
00000050: 1c4c 803f 8cda 7f3f ef37 7f3f fc96 803f
00000060: 1335 803f 5022 803f d717 803f 7829 7f3f
00000070: 2db0 7f3f 32b2 7f3f 6f40 7f3f 8102 803f
00000080: e7ae 803f 8bae 7e3f df39 803f 257d 7e3f
00000090: 7fe1 7f3f 332f 803f 63ff 7f3f 9751 803f
000000a0: 4fbb 7f3f f902 7f3f 3077 7f3f c164 803f
000000b0: 8d35 803f 2409 803f 2d21 803f 1e04 803f
000000c0: 223e 7f3f 5a71 7f3f 1ab5 7f3f 1115 803f
000000d0: 2c56 7f3f 5b18 803f 74cd 7e3f 22eb 7f3f
000000e0: 8095 7f3f 80ae 803f 8399 7e3f 1128 803f
000000f0: 29d7 7f3f 9ef5 7f3f b838 803f 170b 803f

bias f4 [64]
-0.002231812 -0.000107348984 0.00027109563 0.0017588753 0.004116206 0.002232567 0.008429423 -0.0036794133
0.0026884915 0.0007662633 0.00257486 0.0015241231 0.0003435058 -0.0045768144 -0.004936754 0.007434754
0.0009224806 -0.0036014006 0.0014688676 -0.0032932356 0.0033207345 0.0037261152 0.0017595941 0.0031982989
0.0015195163 0.00040017566 0.0016564294 -0.0046438756 0.000737248 0.00026351484 -0.0018422218 -0.0011829856
0.0005202707 -0.0018333365 5.9497666e-05 -0.0009833127 0.0014690205 0.0033233461 -0.0006822846 0.0034565043
-0.00059405126 0.0020964053 -0.0038047787 0.0018853223 -0.0036019948 0.0029584875 0.0047517936 -0.0006799669
-0.0016464217 -0.0013601183 -0.0016615916 0.0037074203 -0.0050637773 0.0007851045 -0.0019679996 -0.0012728322
0.0022134031 0.0015632606 -0.00056194223 0.002695904 0.00087119103 -0.002534704 -0.0022890968 0.0045777583
00000000: 9843 12bb 8c20 e1b8 d721 8e39 108a e63a
00000010: 3de1 863b 4250 123b 901b 0a3c 5022 71bb
00000020: 6731 303b 0fdf 483a fbbe 283b 16c5 c73a
00000030: 9118 b439 1af9 95bb 7ec4 a1bb 3d9f f33b
00000040: a0d2 713a 7a05 6cbb 0587 c03a 53d3 57bb
00000050: aea0 593b d731 743b 2ea2 e63a 8d9a 513b
00000060: 822a c73a abce d139 8c1c d93a a72b 98bb
00000070: e043 413a 5d28 8a39 b576 f1ba 690e 9bba
00000080: c762 083a 914c f0ba 228d 7938 80e2 80ba
00000090: 268c c03a 7fcc 593b 58db 32ba 8586 623b
000000a0: 1bba 1bba d863 093b 9859 79bb eb1c f73a
000000b0: 720f 6cbb 2fe3 413b efb4 9b3b ce3f 32ba
000000c0: bfcc d7ba ff45 b2ba c3c9 d9ba 31f8 723b
000000d0: 0bee a5bb 79cf 4d3a 8ef9 00bb 29d5 a6ba
000000e0: be0e 113b 52e6 cc3a 4e4f 13ba c4ad 303b
000000f0: a460 643a 471d 26bb ac04 16bb 0501 963b

running_mean f4 [64]
148.16374 -67.253815 -36.346268 -15.206016 30.534012 -147.48523 -1.9660333 105.69387
55.835358 34.564087 25.204496 -107.04533 36.80801 22.551544 58.436172 -45.26755
-64.31835 -161.78268 113.02301 -37.177864 -22.320786 -4.248701 -181.63182 55.52508
51.90729 37.861694 70.994484 135.83434 -89.90351 133.27237 -141.81271 -88.53014
11.888137 -179.62592 -27.184761 -149.26648 -89.1929 -84.516014 58.38188 -12.9146385
98.0823 -116.14081 -40.08319 -29.851145 52.32086 -37.442482 2.3018563 18.646591
-83.94626 258.07626 78.1375 -35.82756 -78.91336 49.638557 110.09805 -173.01752
-110.342964 10.993291 -71.30968 81.114975 15.694526 8.941135 -0.2463116 23.443525
00000000: eb29 1443 f481 86c2 9462 11c2 d74b 73c1
00000010: a845 f441 387c 13c3 fba6 fbbf 4363 d342
00000020: 6857 5f42 a041 0a42 cfa2 c941 3517 d6c2
00000030: 673b 1342 9069 b441 a4be 6942 f911 35c2
00000040: ffa2 80c2 5ec8 21c3 c80b e242 22b6 14c2
00000050: f890 b2c1 5cf5 87c0 bfa1 35c3 af19 5e42
00000060: 11a1 4f42 6072 1742 2dfd 8d42 97d5 0743
00000070: 99ce b3c2 ba45 0543 0ed0 0dc3 6f0f b1c2
00000080: cf35 3e41 3ca0 33c3 647a d9c1 3844 15c3
00000090: c462 b2c2 3308 a9c2 0c87 6942 5ca2 4ec1
000000a0: 232a c442 1848 e8c2 3055 20c2 25cf eec1
000000b0: 9048 5142 1ac5 15c2 9d51 1340 382c 9541
000000c0: 7ce4 a7c2 c309 8143 6646 9c42 6c4f 0fc2
000000d0: a4d3 9dc2 e28d 4642 3432 dc42 7c04 2dc3
000000e0: 99af dcc2 85e4 2f41 8e9e 8ec2 de3a a242
000000f0: c71c 7b41 e40e 0f41 1c39 7cbe 578c bb41

running_var f4 [64]
6203.3804 1211.2146 568.2191 99.432 834.5534 6481.6177 289.16275 2879.4224
1104.7211 945.032 579.1481 2850.1724 1892.3556 1431.8207 1224.3394 1526.197
1528.8577 6738.5723 3914.1086 1216.1555 361.15033 353.068 8555.393 1627.5342
995.319 2919.2927 1802.3909 4852.497 2373.572 4521.1714 5408.1865 2245.491
67.94471 8327.398 697.42584 5664.538 2268.9548 3330.108 1952.6766 179.06755
2588.5293 3724.9944 1613.1047 511.65076 1534.1909 842.8547 413.91513 330.35193
2231.429 16972.127 2001.33 419.59073 2294.5835 797.6133 3870.8118 7739.401
3305.521 1299.6278 1638.157 2182.4448 1171.0264 149.1356 489.4108 959.39136
00000000: 0bdb c145 de66 9744 060e 0e44 2fdd c642
00000010: 6ba3 5044 f18c ca45 d594 9043 c2f6 3345
00000020: 1317 8a44 0c42 6c44 7ac9 1044 c222 3245
00000030: 618b ec44 43fa b244 dc0a 9944 4ec6 be44
00000040: 721b bf44 9494 d245 bda1 7445 fa04 9844
00000050: 3e93 b443 b488 b043 92ad 0546 1871 cb44
00000060: 6ad4 7844 af74 3645 824c e144 faa3 9745
00000070: 2759 1445 5f49 8d45 7e01 a945 db57 0c45
00000080: b1e3 8742 981d 0246 415b 2e44 4e04 b145
00000090: 47cf 0d45 ba21 5045 a715 f444 4b11 3343
000000a0: 78c8 2145 e9cf 6845 5aa3 c944 4cd3 ff43
000000b0: 1cc6 bf44 b3b6 5244 23f5 ce43 0c2d a543
000000c0: dd76 0b45 4198 8446 8f2a fa44 9dcb d143
000000d0: 5669 0f45 4067 4744 fdec 7145 35db f145
000000e0: 5698 4e45 1774 a244 06c5 cc44 1e67 0845
000000f0: d860 9244 b722 1543 95b4 f443 0cd9 6f44

weight f4 [64, 64, 3, 3]
-0.019262942 -0.032011673 -0.035034075 -0.014471624 0.008419984 0.0012595203 0.0021372887 0.018161068
0.014749356 0.030026805 -0.011572935 0.008478947 -0.00077694637 -0.013542468 -0.029042324 -0.012409389
-0.039806508 0.004511348 -0.034660015 -0.013613554 -0.013085152 0.03756309 -0.031956043 -0.008513206
0.017299606 0.01481401 0.03887237 0.0117795095 0.022155363 -0.021009827 0.029881671 0.0016267513
-0.0008418093 -0.018014776 0.014908438 0.022071922 -0.029872933 -0.027589142 0.017066834 -0.03947546
-0.038734127 0.031731475 0.014823426 0.005493646 -0.00015975378 0.017209398 -0.031777974 0.034033958
-0.0056862435 0.004493926 -0.041351497 0.0029296181 -0.023655161 0.022891227 -0.03780904 0.041757703
-0.0041932818 -0.008552214 0.00028866003 -0.03475305 0.020041572 0.040386528 -0.017095845 -0.014680663
-0.032819636 0.0068935757 0.029749654 0.037080687 0.013429602 0.01691608 -0.029365212 -0.015338127
0.041279834 0.0037113477 0.019647172 -0.030354496 -0.033507556 0.03885369 -0.017158655 -0.020965438
0.0033545138 -0.0036943043 0.01660756 0.03114259 0.03934689 -0.011293587 -0.0057780845 -0.033058226
-0.02372619 -0.0057346886 -0.018884595 0.0015393753 -0.0073457924 0.026577745 -0.03579629 -0.00027962934
-0.010248824 0.0044818395 -0.020117125 -0.040161036 -0.001718767 0.0036965222 0.03637182 -0.02889225
-0.006735087 0.033568088 0.041503362 0.008140125 -0.02133179 0.027397564 -0.028266098 -0.033578005
0.008648225 -0.02510106 0.015580242 -0.013042674 -0.025227498 -0.016828064 -0.028762897 -0.023234427
0.022691023 -0.005621657 -0.01343397 -0.04152533 0.028302502 -0.020900376 0.034150373 -0.03316859
-0.016568 0.041811258 0.019151283 -0.021903964 -0.028803311 -0.021009332 0.02147272 0.02299905
-0.016091343 -0.037662882 -0.028283196 0.025620105 0.0042749154 0.01745254 0.021587966 -0.028380938
-0.03222549 -0.030951245 0.040956646 0.00026353283 0.0033184998 -0.04400036 0.007789179 -0.03617537
-0.026342656 0.0028014733 -0.038480952 0.01903091 0.029960493 -0.017537935 0.030083263 0.032905627
-0.03690813 0.0033086464 -0.013585817 -0.0040726406 0.02101227 -0.02193126 -0.026694138 0.0029304237
0.010150227 -0.019210467 -0.019528555 -0.03402567 0.0239441 -0.01722465 0.021988796 -0.03197677
-0.023851153 5.699886e-06 0.037036676 -0.0036569163 -0.005181223 -0.01017539 0.00898965 -0.013532872
0.028817268 0.012360384 0.021090478 0.0017851604 0.03804212 -0.025728678 -0.022175064 -0.01687774
-0.014901538 0.0065814005 0.017985944 -0.027908541 -0.022836534 0.028059904 0.018940499 0.007231393
0.017058076 0.0050245575 -0.014628901 -0.0072695366 -0.010199488 -0.015720217 -0.025019199 -0.0070076236
-0.023869388 -0.029310435 -0.025397304 0.043113012 0.04013888 0.020439938 -0.008890633 0.012650779
0.016920147 0.008025706 0.018250663 0.014657842 0.016244816 0.03751105 -0.035447005 0.0063123344
0.033681415 0.034535863 -0.008192969 0.03252665 -0.025931533 -0.0055405726 0.044760443 -0.007436897
0.022956716 0.045267764 -0.016797869 0.019823201 -0.016309116 -0.012328591 0.03674346 0.018023988
-0.03614908 0.040295653 0.030823244 0.023390643 0.0037083006 0.018284574 -0.011941711 -0.014855624
0.022961682 0.007517079 0.0395087 0.0012024615 -0.0012516604 0.02248403 -0.019076278 -0.03674017
00000000: 51cd 9dbc ac1e 03bd e47f 0fbd 641a 6dbc
00000010: f9f3 093c 7d16 a53a c111 0c3b 85c6 943c
00000020: 48a7 713c c6fa f53c 689c 3dbc 48eb 0a3c
00000030: fdab 4bba 3ae1 5dbc 2bea edbc c050 4bbc
00000040: 260c 23bd eed3 933b a9f7 0dbd 620b 5fbc
00000050: 1b63 56bc c1db 193d 57e4 02bd f97a 0bbc
00000060: e7b7 8d3c 76b6 723c a238 1f3d d8fe 403c
00000070: 2a7f b53c cd1c acbc 68ca f43c b738 d53a
00000080: deac 5cba b993 93bc 8542 743c 2dd0 b43c
00000090: 15b8 f4bc a002 e2bc bfcf 8b3c 05b1 21bd
000000a0: ada7 1ebd ddf8 013d f4dd 723c 0b04 b43b
000000b0: 9483 27b9 b9fa 8c3c 9f29 02bd 3167 0b3d
000000c0: ab53 babb c941 933b 3060 29bd d6fe 3f3b
000000d0: 78c8 c1bc 6286 bb3c a7dd 1abd 200a 2b3d
000000e0: cc67 89bb 961e 0cbc 4b57 9739 3759 0ebd
000000f0: 392e a43c 586c 253d 960c 8cbc 2a87 70bc
00000100: e26d 06bd 81e3 e13b 8cb5 f33c ebe1 173d
00000110: d507 5c3c 9793 8a3c 508f f0bc c44c 7bbc
00000120: 0b15 293d 153a 733b 1bf3 a03c fea9 f8bc
00000130: 383f 09bd 0c25 1f3d 4f90 8cbc b6bf abbc
00000140: 67d7 5b3b 241c 72bb 940c 883c bf1e ff3c
00000150: 342a 213d bd08 39bc 1656 bdbb 1068 07bd
00000160: 6d5d c2bc 0eea bbbb deb3 9abc ddc4 c93a
00000170: f9b4 f0bb 92b9 d93c 219f 12bd 379b 92b9
00000180: afea 27bc 65dc 923b abcc a4bc e67f 24bd
00000190: 4048 e1ba 5a41 723b 9efa 143d 71af ecbc
000001a0: 01b2 dcbb b17e 093d 6eff 293d 295e 053c
000001b0: 02c0 aebc db70 e03c 4e8e e7bc 1789 09bd
000001c0: 49b1 0d3c bda0 cdbc 4544 7f3c f1b0 55bc
000001d0: e6a9 cebc 02db 89bc 2ba0 ebbc 2056 bebc
000001e0: 86e2 b93c e035 b8bb 271a 5cbc 7716 2abd
000001f0: a6da e73c 4437 abbc 43e1 0b3d cadb 07bd
00000200: 9db9 87bc 4842 2b3d 27e3 9c3c f16f b3bc
00000210: ecf4 ebbc c31b acbc 8fe7 af3c 8168 bc3c
00000220: fed1 83bc 6544 1abd 29b2 e7bc 41e1 d13c
00000230: 9714 8c3b a1f8 8e3c 3fd9 b03c 247f e8bc
00000240: e0fe 03bd 778d fdbc 28c2 273d c72a 8a39
00000250: 307b 593b b939 34bd 5f3c ff3b a02c 14bd
00000260: 8ecc d7bc ec98 373b 349e 1dbd b6e6 9b3c
00000270: b56f f53c b7ab 8fbc 2d71 f63c 0dc8 063d
00000280: fb2c 17bd e0d5 583b 0c97 5ebc c973 85bb
00000290: ed21 ac3c 30a9 b3bc aaad dabc 5a0c 403b
000002a0: 234d 263c 455f 9dbc 59fa 9fbc 805e 0bbd
000002b0: 6b26 c43c b61a 8dbc d921 b43c 13fa 02bd
000002c0: 7e63 c3bc a641 bf36 c5b3 173d e0a8 6fbb
000002d0: 40c7 a9bb aeb6 26bc 5349 133c fbb8 5dbc
000002e0: 3112 ec3c 3583 4a3c f0c5 ac3c 0bfc e93a
000002f0: 0ed2 1b3d f3c4 d2bc 7ba8 b5bc 3043 8abc
00000300: 9525 74bc caa8 d73b 4257 933c 74a0 e4bc
00000310: af13 bbbc e2dd e53c 1b29 9b3c 52f5 ec3b
00000320: 61bd 8b3c 0ba5 a43b 0fae 6fbc 4b35 eebb
00000330: c11b 27bc afc7 80bc 10f5 ccbc 35a0 e5bb
00000340: bc89 c3bc 701c f0bc 020e d0bc 4597 303d
00000350: ab68 243d a871 a73c 04aa 11bc 3745 4f3c
00000360: 1f9c 8a3c 407e 033c 6a82 953c 7227 703c
00000370: d913 853c 30a5 193d e130 11bd b3d7 ce3b
00000380: 86f5 093d 7a75 0d3d cd3b 06bc aa3a 053d
00000390: 5e6e d4bc b18d b5bb ba56 373d 37b1 f3bb
000003a0: b90f bc3c b16a 393d af9b 89bc 4464 a23c
000003b0: b29a 85bc dcfd 49bc 4f80 163d 0ba7 933c
000003c0: 0f11 14bd 0e0d 253d 0781 fc3c bc9d bf3c
000003d0: f606 733b 88c9 953c 2ba7 43bc 0165 73bc
000003e0: 231a bc3c d451 f63b e0d3 213d ea9b 9d3a
000003f0: c10e a4ba 6e30 b83c db45 9cbc dc7c 16bd

bias f4 [64]
-0.016254377 0.014477507 0.023342075 0.017203769 -0.037338488 -0.020298116 0.020192612 0.041048393
0.030721327 -0.0354699 -0.027335627 0.026349409 -0.016753484 -0.03290163 -0.028891474 0.017925547
0.014793744 -0.025466511 -0.035720415 0.023121065 0.0050228927 -0.033887774 -0.005272624 -0.011722989
-0.0059666457 -0.011858492 0.025955472 0.014844036 0.00048679032 0.04017805 0.006065643 -0.026526334
-0.031995352 0.0034669084 0.037872534 -0.02541595 -0.017456898 -0.04208488 0.008684562 0.041958652
-0.00046952153 -0.030110141 0.0043240814 0.0071973284 0.039739713 0.02250977 0.0009193398 -0.0417805
0.01579829 -0.032817725 0.030859342 -0.04080585 0.0042069172 -0.023806086 -0.0059703114 0.035179105
0.029734474 -0.03965991 0.037933014 -0.011161585 0.043158792 -0.0018530985 -0.019072156 0.008992175
00000000: e627 85bc 1133 6d3c e137 bf3c ebee 8c3c
00000010: 3ef0 18bd 3c48 a6bc fa6a a53c 5c22 283d
00000020: 4bab fb3c e348 11bd f7ee dfbc b7da d73c
00000030: 9a3e 89bc dcc3 06bd d0ad ecbc 99d8 923c
00000040: 7661 723c 259f d0bc 924f 12bd 6368 bd3c
00000050: 1497 a43b e8cd 0abd fac5 acbb c811 40bc
00000060: da83 c3bb 1f4a 42bc 92a0 d43c 6634 733c
00000070: e437 ff39 bd91 243d 4dc2 c63b c14d d9bc
00000080: 8f0d 03bd 1235 633b 3b20 1b3d 1c35 d0bc
00000090: c501 8fbc 3261 2cbd b149 0e3c d6dc 2b3d
000000a0: 1d2a f6b9 8ba9 f6bc 06b1 8d3b 91d7 eb3b
000000b0: 1cc6 223d 6966 b83c d9ff 703a 0822 2bbd
000000c0: 6a6b 813c e16b 06bd bbcc fc3c 0924 27bd
000000d0: 2eda 893b fb04 c3bc 9aa2 c3bb f717 103d
000000e0: b695 f33c 6e72 22bd a65f 1b3d 15df 36bc
000000f0: 46c7 303d abe3 f2ba 363d 9cbc ea53 133c

weight f4 [64]
1.0000014 0.99950564 1.0006955 1.0017492 0.9979477 0.9994332 1.0017933 0.998602
1.0017172 1.0037255 1.0002553 1.0005968 0.99914825 0.99679655 0.99793047 1.0035896
1.0035872 1.0026102 0.9974373 0.99994224 1.0021768 0.9989065 0.9962841 1.0045445
0.9997086 1.0013039 0.99750125 0.9948065 0.99794894 0.9995409 1.0003339 0.9946918
0.99965155 1.005216 1.0044359 0.9963748 0.9991158 0.9955166 1.002193 1.0018208
1.0004274 1.0001758 0.9975111 1.0035313 1.0013016 1.0056273 0.99858093 0.9990224
0.9994172 1.0027379 0.9967092 0.99966556 0.9976837 0.99798054 1.0006615 1.0009867
1.0011932 0.99677277 0.9960131 1.0030735 1.0042692 0.9980503 1.0033575 1.0028229
00000000: 0c00 803f 9adf 7f3f ca16 803f 5139 803f
00000010: 8079 7f3f dbda 7f3f c33a 803f 61a4 7f3f
00000020: 4538 803f 147a 803f 5e08 803f 8e13 803f
00000030: 2ec8 7f3f 0f2e 7f3f 5f78 7f3f a075 803f
00000040: 8c75 803f 8855 803f 0d58 7f3f 37fc 7f3f
00000050: 5447 803f 56b8 7f3f 7a0c 7f3f ea94 803f
00000060: e7ec 7f3f ba2a 803f 3e5c 7f3f a4ab 7e3f
00000070: 9579 7f3f eae1 7f3f f10a 803f 1fa4 7e3f
00000080: 2ae9 7f3f ebaa 803f 5b91 803f 6b12 7f3f
00000090: 0ec6 7f3f 2dda 7e3f dc47 803f aa3b 803f
000000a0: 010e 803f c305 803f e35c 7f3f b773 803f
000000b0: a72a 803f 65b8 803f 00a3 7f3f efbf 7f3f
000000c0: ced9 7f3f b759 803f 5628 7f3f 15ea 7f3f
000000d0: 3368 7f3f a77b 7f3f ad15 803f 5520 803f
000000e0: 1927 803f 802c 7f3f b7fa 7e3f b664 803f
000000f0: e58b 803f 3980 7f3f 056e 803f 805c 803f

bias f4 [64]
-0.002519958 0.0010529255 -0.0015983462 -0.0015697572 -0.0026632063 -0.0014917017 0.0010155501 -0.003429801
-0.0019730516 -0.0042938627 0.0012287623 -0.0018139352 -0.003930093 -0.0042478787 -0.0010755963 0.0009466461
0.0028648134 0.0016868846 -0.0052347844 -0.0018095021 0.00055288436 0.0026655144 -0.0032402417 0.0033373043
-0.0043727816 -0.0015152564 0.0023313698 0.00051411556 0.0017185592 -0.0008711474 -0.00494489 -0.002939421
0.00041516853 -0.00085467816 0.0021893533 -0.00037284216 -0.0018252783 0.0054003685 -0.004536818 0.0028612602
-0.002699631 -0.0025620065 0.0001309033 -0.0006509348 0.0008837037 0.003662866 -0.0030863516 -6.854353e-05
-0.0007839283 0.0020857602 -0.002683319 -0.0035082293 0.00013205744 -0.0046626376 3.45643e-05 -0.0024991026
0.0004756217 -0.0031292397 0.00051229127 0.0039924737 0.0032715339 -0.0005404877 0.0046976353 -0.001505876
00000000: e125 25bb 5102 8a3a 997f d1ba 50c0 cdba
00000010: 3089 2ebb 3485 c3ba 351c 853a 83c6 60bb
00000020: 504e 01bb 88b3 8cbb 6c0e a13a 91c1 edba
00000030: 02c8 80bb ca31 8bbb 06fb 8cba 5828 783a
00000040: 98bf 3b3b 741a dd3a 8e88 abbb d12c edba
00000050: 71ef 103a e9af 2e3b 3c5a 54bb adb6 5a3b
00000060: 8d49 8fbb 919b c6ba e5c9 183b b6c5 063a
00000070: 4741 e13a b65d 64ba be08 a2bb 4da3 40bb
00000080: faaa d939 7b0c 60ba 417b 0f3b 077a c3b9
00000090: 2d3e efba 93f5 b03b 96a9 94bb fb83 3b3b
000000a0: 4bec 30bb 56e7 27bb 1643 0939 7fa3 2aba
000000b0: 5aa8 673a b20c 703b 6344 4abb 07bf 8fb8
000000c0: 8a80 4dba 40b1 083b 9fda 2fbb 52ea 65bb
000000d0: e678 0a39 0ac9 98bb 22f9 1038 fcc7 23bb
000000e0: dd5c f939 ee13 4dbb 494b 063a 4cd3 823b
000000f0: 3b67 563b 84af 0dba 9fee 993b d060 c5ba

running_mean f4 [64]
0.16169623 -0.070150085 0.37400386 0.050618723 -0.14204744 0.03302381 -0.58438337 -0.14714886
0.23242147 -0.04628765 -0.067119256 0.15185907 -0.49040088 0.21260725 0.73574495 -0.21900561
-0.1841191 -0.1478885 0.24806549 -0.07368407 -0.15699527 -0.40498567 0.67956144 0.2208501
0.30225566 -0.009861658 0.07101284 0.69518954 -0.19340533 -0.03858647 -0.027285336 -0.0069392384
-0.25537732 0.18878871 0.10974239 -0.012333683 0.12581278 -0.44346082 0.38151774 0.14192946
0.19872017 -0.17583376 -0.33432293 -0.46352726 -0.10294725 -0.20393941 0.09138323 -0.11663428
0.0007176215 0.22248788 -0.42411116 0.063778765 -0.040674493 0.13762887 -0.30105582 0.039908353
-0.30490223 -0.33875713 -0.17916253 -0.30705923 0.16364059 0.5098707 0.31638172 0.09756758
00000000: b293 253e d9aa 8fbd 6f7d bf3e 9455 4f3d
00000010: e274 11be f943 073d 269a 15bf 31ae 16be
00000020: e5ff 6d3e 1e98 3dbd d275 89bd f280 1b3e
00000030: d315 fbbe b7b5 593e c859 3c3f 0243 60be
00000040: b889 3cbe 1570 17be e104 7e3e ace7 96bd
00000050: 5ec3 20be 485a cfbe bdf7 2d3f 8726 623e
00000060: 41c1 9a3e cb92 21bc 2e6f 913d f1f7 313f
00000070: 0c0c 46be d90c 1ebd 7f85 dfbc 8d62 e3bb
00000080: d1c0 82be d451 413e 9ec0 e03d 3713 4abc
00000090: 11d5 003e 4c0d e3be 4b56 c33e f555 113e
000000a0: 4d7d 4b3e c40d 34be 602c abbe 7253 edbe
000000b0: 02d6 d2bd 7ed5 50be 2227 bb3d f4dd eebd
000000c0: c31e 3c3a ddd3 633e 1925 d9be 719e 823d
000000d0: 4c9a 26bd 95ee 0c3e fd23 9abe f176 233d
000000e0: 251c 9cbe 9371 adbe 6276 37be de36 9dbe
000000f0: 6691 273e e386 023f c9fc a13e 83d1 c73d

running_var f4 [64]
0.08188178 0.31759617 0.3961928 0.106713735 0.508153 0.068925 0.2568116 0.14833857
0.13601553 0.12097318 0.20392847 0.1806232 0.28929356 0.18659273 0.17022714 0.13003919
0.15711108 0.27093568 0.16092977 0.32957038 0.17323527 0.1980829 0.29341078 0.16191463
0.09411899 0.2556061 0.17194848 0.2477238 0.2652223 0.16064541 0.1828589 0.21109442
0.13337211 0.099183865 0.0860842 0.22933725 0.111420624 0.18915293 0.14607424 0.09409787
0.066406965 0.09664155 0.09492229 0.09326349 0.12459737 0.11034592 0.17003556 0.16722651
0.26809385 0.22299273 0.11946485 0.2864666 0.08258104 0.26183674 0.09794186 0.07838525
0.23154537 0.22039686 0.35019183 0.18372154 0.1590961 0.19332755 0.16300793 0.123249985
00000000: a2b1 a73d f79b a23e c8d9 ca3e bb8c da3d
00000010: 5116 023f 8d28 8d3d cf7c 833e 11e6 173e
00000020: a847 0b3e c9c0 f73d a0d2 503e 4af5 383e
00000030: 491e 943e 2a12 3f3e 0650 2e3e fe28 053e
00000040: bae1 203e 15b8 8a3e c6ca 243e 73bd a83e
00000050: 9664 313e 3ed6 4a3e f039 963e f3cc 253e
00000060: 75c1 c03d cede 823e 4313 303e 4fab 7d3e
00000070: 38cb 873e 3b80 243e 5d3f 3b3e 2329 583e
00000080: b392 083e e920 cb3d ea4c b03d 62d7 6a3e
00000090: 7f30 e43d 4eb1 413e 7c94 153e 62b6 c03d
000000a0: 6000 883d 01ec c53d 9e66 c23d ee00 bf3d
000000b0: e82c ff3d 0bfd e13d cd1d 2e3e 6d3d 2b3e
000000c0: 9943 893e 3558 643e fda9 f43d c0ab 923e
000000d0: 4020 a93d 770f 863e be95 c83d 7288 a03d
000000e0: 3b1a 6d3e b7af 613e 584c b33e 8021 3c3e
000000f0: 17ea 223e a8f7 453e 8deb 263e 7d6a fc3d

weight f4 [64, 64, 3, 3]
-0.00053620874 -0.01082751 -0.022018194 0.033741795 -0.018249784 -0.010307542 -0.009563308 0.017500114
0.029515257 0.034414053 0.03875479 -0.016422754 -0.023482263 0.020573383 -0.018606057 0.036660764
0.030343564 0.018287817 -0.035877813 0.003650443 -0.02525861 -0.03085725 -0.012477825 -0.017292507
-0.035570417 -0.025555594 0.002938852 0.01069042 0.022376556 0.023020852 -0.003966229 0.012834441
-0.0334499 0.015229286 -0.010281408 -0.023767324 -0.019386876 0.023800688 0.018520242 0.026804421
-0.034971677 -0.03834801 0.013956141 0.022558138 -0.04103745 0.013011296 0.042337347 -0.0019704613
-0.011876091 0.016690712 -0.014212988 0.017870763 -0.011793629 -0.03208976 -0.023298448 -0.026872553
-0.004588219 0.00858371 0.0030936422 0.0057417187 0.0063190022 -0.0043124957 -0.016592305 0.026786122
-0.04282092 0.014507546 -0.022096375 0.012633237 -0.0019194845 0.01549354 0.007221128 -0.038326297
-0.037886184 0.038719494 0.0014987419 0.01023487 0.035330575 0.014515665 0.022257702 0.021670952
-0.04329058 0.016380867 0.038059816 0.0093236435 0.022398371 0.042800542 0.019722907 0.00824495
0.042544626 -0.002369913 -0.034241427 -0.019394841 -0.004323281 0.0065609463 0.0071480004 -0.022206247
0.039518673 -0.03496965 0.01625389 0.01946649 -0.023413071 0.0024527486 -0.023666795 -0.021683054
0.027352465 -0.0073929033 -0.005347234 0.012715859 0.0059266062 0.025515214 0.029178247 -0.017778762
0.015635094 0.011589784 -0.0269701 -0.012004076 -0.017373212 0.0026806605 0.022889605 -0.011173479
-0.03409661 0.04126695 -0.03250469 0.033837978 -0.03413439 -0.04382329 0.034622546 -0.027926676
0.007041463 0.036081485 0.0065561077 0.029508146 0.008955845 0.020932717 -0.020716902 0.018125383
-0.00025481955 -0.033090916 -0.032703146 -0.0036982624 0.03738724 -0.013206571 -0.003272038 0.03146665
0.028549291 -0.045337845 -0.019641303 0.03645106 0.0019374377 -0.0012981711 0.0418309 0.0005539369
0.0010165572 -0.017812945 -0.00614995 0.030528026 -0.012845277 0.038582638 0.009199555 -0.037457123
-0.009000863 -0.028952993 0.038961414 -0.022241745 0.015844733 0.00086649886 0.028520262 -0.012177536
-0.042248297 -0.031389996 0.00039538302 0.019447671 -0.0070873285 -0.0028681399 -0.04458097 0.03072397
-0.030474512 -0.0076320134 0.014890268 -0.0039797453 0.024977218 0.019742364 0.03525854 -0.025970664
-0.035254218 0.029015252 -0.030220915 0.028496828 -0.007415141 0.0181145 -0.04118419 -0.026443899
-0.039316013 0.024647878 -0.03804691 0.011755149 -0.016804365 0.032317847 -0.041012667 -0.026257375
0.032042734 -0.00026837003 -0.0088101 0.031399276 0.019448921 0.012714217 0.024318608 -0.016496278
-0.006819493 0.011952206 0.016356595 -0.035091493 0.02673179 -0.0314923 0.015636262 -0.019856032
0.013786815 -0.021560239 -0.03945091 0.030727334 0.036637448 -0.006242607 -0.012971039 0.015374383
0.014127442 0.003605966 0.041348103 0.039685767 -0.04243732 0.038413584 -0.013776765 0.013096744
0.0020015747 0.021507023 -0.015603097 0.043954805 0.02943396 0.0074135484 -0.038836885 -0.016700393
0.025786495 -0.02079175 -0.009290621 0.029994844 0.028300848 0.009678295 -0.008781043 -0.013391747
0.008940534 -0.004201461 0.035186145 -0.04301221 -0.019770212 0.03610865 -0.010185597 -0.026847567
00000000: 5c90 0cba de65 31bc 805f b4bc d634 0a3d
00000010: 9280 95bc f7e0 28bc 6caf 1cbc 665c 8f3c
00000020: fbc9 f13c c0f5 0c3d 58bd 1e3d 0389 86bc
00000030: e05d c0bc 8389 a83c bb6b 98bc 9929 163d
00000040: 1193 f83c 55d0 953c 9df4 12bd 453c 6f3b
00000050: 25eb cebc 58c8 fcbc cb6f 4cbc 04a9 8dbc
00000060: 49b2 11bd f759 d1bc c199 403b df26 2f3c
00000070: 0a4f b73c 3a96 bc3c 24f7 81bb 8c47 523c
00000080: c302 09bd 4184 793c 5a73 28bc b1b3 c2bc
00000090: 3ad1 9ebc a9f9 c23c c3b7 973c f294 db3c
000000a0: 763e 0fbd ce12 1dbd 4ca8 643c d8cb b83c
000000b0: e316 28bd 552d 553c ed69 2d3d db22 01bb
000000c0: f093 42bc f6ba 883c 98dd 68bc b565 923c
000000d0: 113a 41bc 8d70 03bd 63dc bebc d423 dcbc
000000e0: c558 96bb b0a2 0c3c b4be 4a3b 0725 bc3b
000000f0: a20f cf3b d64f 8dbb 96ec 87bc 926e db3c
00000100: fd64 2fbd 0fb1 6d3c 7503 b5bc a3fb 4e3c
00000110: 3697 fbba 9ed8 7d3c 369f ec3b 09fc 1cbd
00000120: 8b2e 1bbd 5598 1e3d 6f71 c43a 28b0 273c
00000130: cbb6 103d 1dd3 6d3c c955 b63c 4887 b13c
00000140: 7751 31bd 2b31 863c 9ce4 1b3d 32c2 183c
00000150: ca7c b73c 9f4f 2f3d ef91 a13c d415 073c
00000160: 4643 2e3d 8b50 1bbb bd40 0cbd eee1 9ebc
00000170: 4faa 8dbb 35fd d63b c639 ea3b e0e9 b5bc
00000180: 55de 213d 563c 0fbd e126 853c 3078 9f3c
00000190: c5cc bfbc 4bbe 203b dee0 c1bc a9a0 b1bc
000001a0: 4712 e03c 2b40 f2bb da37 afbb 2e56 503c
000001b0: fa33 c23b 4805 d13c 3807 ef3c c4a4 91bc
000001c0: 2b15 803c 14e3 3d3c 66f0 dcbc beac 44bc
000001d0: 4452 8ebc 05ae 2f3b fb82 bb3c f810 37bc
000001e0: e3a8 0bbd 8907 293d a323 05bd b199 0a3d
000001f0: 81d0 0bbd 0d80 33bd 5fd0 0d3d 7cc6 e4bc
00000200: 13bc e63b 2eca 133d 9ed4 d63b 11bb f13c
00000210: 89bb 123c 177b ab3c 7eb6 a9bc af7b 943c
00000220: 4d99 85b9 578a 07bd bcf3 05bd 8c5e 72bb
00000230: 5d23 193d 6060 58bc b06f 56bb 2de3 003d
00000240: 34e0 e93c 2db4 39bd cce6 a0bc b54d 153d
00000250: 9ff1 fd3a 6527 aaba e156 2b3d 1336 113a
00000260: 003e 853a 74ec 91bc 8585 c9bb e915 fa3c
00000270: ff74 52bc d408 1e3d bbb9 163c a46c 19bd
00000280: 5b78 13bc d42e edbc 0196 1f3d 5234 b6bc
00000290: d0cc 813c c125 633a 53a3 e93c 4a84 47bc
000002a0: 8d0c 2dbd cc92 00bd 694b cf39 b950 9f3c
000002b0: d23c e8bb 67f7 3bbb 899a 36bd d6b0 fb3c
000002c0: afa5 f9bc f815 fabb 50f6 733c 8668 82bb
000002d0: 069d cc3c bdba a13c 426b 103d 6ec0 d4bc
000002e0: ba66 10bd 65b1 ed3c da91 f7bc 2e72 e93c
000002f0: b6fa f2bb dc64 943c c1b0 28bd e0a0 d8bc
00000300: d409 21bd 59ea c93c 14d7 1bbd ab98 403c
00000310: 4fa9 89bc b85f 043d e6fc 27bd b519 d7bc
00000320: 3e3f 033d 04b4 8cb9 3d58 10bc 879c 003d
00000330: 5853 9f3c 4b4f 503c d137 c73c 3423 87bc
00000340: 0e76 dfbb 2fd3 433c 44fe 853c 19bc 0fbd
00000350: a0fc da3c 12fe 00bd 9e17 803c 1ea9 a2bc
00000360: 18e2 613c 199f b0bc 4797 21bd e4b7 fb3c
00000370: 2611 163d c88e ccbb 7b84 54bc d6e4 7b3c
00000380: c976 673c 1252 6c3b a15c 293d 8b8d 223d
00000390: c1d2 2dbd 9057 1d3d f1b7 61bc ba93 563c
000003a0: da2c 033b 7f2f b03c 22a4 7fbc f409 343d
000003b0: 7d1f f13c 5aed f23b 6d13 1fbd 43cf 88bc
000003c0: 333e d33c 7653 aabc b037 18bc bfb7 f53c
000003d0: 2ed7 e73c b691 1e3c 5dde 0fbc 0f69 5bbc
000003e0: 517b 123c 69ac 89bb 591f 103d 922d 30bd
000003f0: 24f5 a1bc aae6 133d 7ee1 26bc 6eef dbbc

bias f4 [64]
0.0070981467 -0.01816762 -0.0025867505 -0.035914518 -0.0022141298 -0.040170312 0.0429037 -0.036864005
-0.003605552 0.027437354 -0.008049684 -0.008671792 -0.017128559 -0.0056738015 -0.015395392 0.029929869
0.017914182 0.002063857 0.039263368 -0.03319324 0.041610856 0.022500394 -0.009449763 -0.040991757
-0.015718896 0.00032741955 0.021015137 0.008748778 0.013226497 -0.016960219 -0.010067775 0.03967012
0.023181656 0.026325148 -0.0046988474 -0.029756375 0.0011683861 0.019214122 0.0061921333 0.036641583
-0.03004824 0.03470986 -0.017327545 -0.005731944 -0.0045646126 -0.022157038 0.025486438 0.027452514
-0.023605365 0.030397959 -0.031056352 0.0038800905 -0.0077616842 -0.01568709 -0.035028264 0.013912192
0.01602954 -0.033922024 -0.019266998 -0.020673107 -0.023018397 0.015798993 0.0036457246 0.024042124
00000000: 9297 e83b 43d4 94bc 7986 29bb 1a1b 13bd
00000010: ef1a 11bb a089 24bd cabb 2f3d b6fe 16bd
00000020: 204b 6cbb 4dc4 e03c d2e2 03bc 2214 0ebc
00000030: 3151 8cbc 4ceb b9bb f43c 7cbc 7c2f f53c
00000040: c3c0 923c c641 073b a0d2 203d a3f5 07bd
00000050: 2570 2a3d bf52 b83c 2ed3 1abc f9e6 27bd
00000060: eac4 80bc 82a9 ab39 f027 ac3c 0957 0f3c
00000070: f3b3 583c 28f0 8abc 4ff3 24bc 237d 223d
00000080: 75e7 bd3c d6a7 d73c caf8 99bb a4c3 f3bc
00000090: 8824 993a ef66 9d3c 61e7 ca3b 7c15 163d
000000a0: ba27 f6bc ed2b 0e3d 7ff2 8dbc 08d3 bbbb
000000b0: bf92 95bb ad82 b5bc efc8 d03c 18e4 e03c
000000c0: 0a60 c1bc 2405 f93c e469 febc 1e49 7e3b
000000d0: ba55 febb 3682 80bc cc79 0fbd f6ef 633c
000000e0: 6250 833c d2f1 0abd d3d5 9dbc a65a a9bc
000000f0: 1491 bcbc e46c 813c 1ced 6e3b fdf3 c43c

weight f4 [64]
0.99539095 0.9973531 0.99682754 0.9930748 1.0002548 0.9975836 1.0003057 0.99956524
1.003898 0.999227 0.99373686 0.9969899 0.99884146 1.0023305 0.99811685 0.9996056
0.99965924 1.0013157 1.0025868 1.0017297 0.99630004 1.0049798 1.0018312 0.9995213
0.99868166 0.9937313 1.0001109 0.9995008 0.9948469 1.0052096 1.0006076 0.9963947
1.0024153 1.0008465 1.0019715 1.0012102 1.0038357 0.9946643 0.9998574 0.9963684
1.0010859 0.99658203 0.9998555 1.0001618 0.9971059 0.99764854 1.0027655 1.004264
0.99683785 0.999198 1.0006193 1.0073601 1.0015955 1.0008578 0.9979361 0.99989265
1.0027237 1.0013161 0.99908334 1.0061107 0.9995486 0.99636805 0.9988495 0.99767965
00000000: f1d1 7e3f 8852 7f3f 1730 7f3f 263a 7e3f
00000010: 5908 803f a461 7f3f 040a 803f 82e3 7f3f
00000020: bb7f 803f 57cd 7f3f 8a65 7e3f bb3a 7f3f
00000030: 13b4 7f3f 5e4c 803f 9684 7f3f 27e6 7f3f
00000040: abe9 7f3f 1d2b 803f c454 803f ae38 803f
00000050: 850d 7f3f 2ea3 803f 013c 803f a1e0 7f3f
00000060: 9aa9 7f3f 2d65 7e3f a203 803f 49df 7f3f
00000070: 49ae 7e3f b5aa 803f e913 803f b913 7f3f
00000080: 254f 803f bd1b 803f 9a40 803f a827 803f
00000090: b07d 803f 52a2 7e3f a8f6 7f3f 0012 7f3f
000000a0: 9523 803f 0020 7f3f 88f6 7f3f 4d05 803f
000000b0: 5542 7f3f e565 7f3f 9f5a 803f b98b 803f
000000c0: c430 7f3f 71cb 7f3f 4b14 803f 2df1 803f
000000d0: 4834 803f 1c1c 803f be78 7f3f f7f8 7f3f
000000e0: 4059 803f 202b 803f edc3 7f3f 3cc8 803f
000000f0: 6be2 7f3f fa11 7f3f 9ab4 7f3f ef67 7f3f

bias f4 [64]
-0.0030163713 0.0012748309 -0.0010795833 -0.004529829 0.0021013077 -0.0047038617 -0.0019327184 -0.0033111752
-0.0037856114 -0.0011791296 -0.004559761 -0.0017121413 -0.0021396214 0.0005741377 0.003345726 -0.00085028535
0.0010799096 -0.0022274058 0.0034590864 0.0010549445 0.0003852629 0.0038190065 -0.003546304 -0.0025035806
0.0019927423 -0.005786833 0.0015237129 -0.0004304916 -0.0038467334 0.00060858054 -0.0005246495 4.374697e-06
0.0007434252 0.0008798953 -0.00077195535 0.0008929411 0.0015956447 -0.0043053273 0.0014554448 -0.005288238
-0.00050688843 -0.0054484527 0.001511338 -0.0020196957 -0.0017797246 -0.0001229662 0.00071103335 0.00021194851
-0.0010417467 -0.0016216353 -0.0011958128 0.0060226354 0.0027779269 -0.00018358453 -0.0011895697 -0.0027444868
-0.002533151 -0.00024125642 -0.001571718 0.004887825 -0.0022844693 -0.002855661 -0.0016792427 -0.001991288
00000000: 50ae 45bb 3a18 a73a ce80 8dba f66e 94bb
00000010: 18b6 093b da22 9abb 4553 fdba 4d00 59bb
00000020: 0518 78bb 068d 9aba 0c6a 95bb ee69 e0ba
00000030: e438 0cbb bb81 163a f843 5b3b afe5 5eba
00000040: c18b 8d3a abf9 11bb d7b1 623b 1046 8a3a
00000050: 1cfd c939 4c48 7a3b 1c69 68bb 1d13 24bb
00000060: ab98 023b 799f bdbb 52b7 c73a 9bb3 e1b9
00000070: 7a19 7cbb 2689 1f3a a288 09ba 5cca 9236
00000080: 6ce2 423a c6a8 663a 0c5d 4aba 4314 6a3a
00000090: f424 d13a b413 8dbb a0c4 be3a f548 adbb
000000a0: b5e0 04ba ef88 b2bb 1718 c63a df5c 04bb
000000b0: a645 e9ba 7df0 00b9 a464 3a3a 7f3e 5e39
000000c0: 388b 88ba 0d8d d4ba d2bc 9cba 8759 c53b
000000d0: e10d 363b 9980 40b9 56eb 9bba d9dc 33bb
000000e0: 3903 26bb c7f9 7cb9 1b02 ceba 0c2a a03b
000000f0: 09b7 15bb 0b26 3bbb 091a dcba 4580 02bb

running_mean f4 [64]
0.21221389 -0.26730916 -0.3326589 0.27150008 -0.104019746 -0.040659793 0.038479477 -0.06372016
0.072191045 0.18982546 -0.8469905 -0.30447322 0.2720501 0.32271698 0.5738861 0.3214315
0.17818536 0.45400235 -0.27966228 0.26007256 0.14361201 0.077778846 -0.21770768 0.7765391
0.125118 0.3839173 -0.5190868 -0.23029076 -0.14044093 -0.44156978 -0.34516165 0.075825654
0.21118899 -0.22761223 0.011543748 -0.37594235 0.44085005 -0.22194794 0.01436763 0.18374045
0.06670622 0.5852521 0.2712501 -0.12238694 0.44982103 -0.3596073 -0.39764774 0.004923179
0.14277035 -0.13575864 0.267348 -0.06244205 -0.13490862 -0.20657605 -0.05233683 0.56652886
0.49825257 0.34968257 0.074255034 -0.41294953 -0.9134571 0.21958926 -0.13823706 0.43268108
00000000: 994e 593e bfdc 88be 4452 aabe 0f02 8b3e
00000010: 4e08 d5bd e28a 26bd a89c 1d3d b77f 82bd
00000020: e6d8 933d 9b61 423e 5fd4 58bf eae3 9bbe
00000030: 274a 8b3e 293b a53e 33ea 123f ab92 a43e
00000040: 3976 363e ff72 e83e e52f 8fbe 3b28 853e
00000050: 070f 133e 844a 9f3d c3ee 5ebe 44cb 463f
00000060: ef1e 003e cf90 c43e dfe2 04bf 57d1 6bbe
00000070: bfcf 0fbe 6f15 e2be 07b9 b0be 7b4a 9b3d
00000080: ed41 583e 2e13 69be fd21 3d3c 847b c0be
00000090: 19b7 e13e 5246 63be 3566 6b3c 7526 3c3e
000000a0: 459d 883d 15d3 153f 4be1 8a3e 01a6 fabd
000000b0: f14e e63e 731e b8be 7c98 cbbe 9e52 a13b
000000c0: 6432 123e 5004 0bbe d6e1 883e 3cc3 7fbd
000000d0: 7c25 0abe ac88 53be 255f 56bd 0908 113f
000000e0: f61a ff3e 9809 b33e 0613 983d 1f6e d3be
000000f0: 53d8 69bf 02dc 603e 048e 0dbe 6088 dd3e

running_var f4 [64]
0.46572086 0.18311231 0.3482525 0.3536523 0.15936252 0.13890192 0.26349297 0.15694003
0.102921896 0.121967435 0.2712123 0.25728428 0.09136149 0.1145231 0.30263296 0.40727538
0.18142729 0.1761293 0.124891214 0.15589005 0.35538936 0.19370887 0.092841335 0.20076948
0.20094223 0.62913024 0.1766603 0.1131861 0.28384504 0.12681806 0.25666642 0.15424308
0.12055012 0.41215542 0.11841314 0.24856393 0.11945232 0.15925358 0.26561525 0.10775893
0.16218166 0.20985726 0.21199054 0.12932254 0.26365525 0.44611678 0.22275358 0.06914103
0.19452813 0.24603593 0.183142 0.06236127 0.21451998 0.15242001 0.113003984 0.38536334
0.127332 0.1336259 0.10988372 0.08743771 0.22811058 0.26833862 0.24087763 0.3791803
00000000: f772 ee3e cb81 3b3e 274e b23e ea11 b53e
00000010: ee2f 233e 4e3c 0e3e 8de8 863e e3b4 203e
00000020: b7c8 d23d 10ca f93d 57dc 8a3e c4ba 833e
00000030: bc1b bb3d 168b ea3d b5f2 9a3e 6686 d03e
00000040: 13c8 393e 3d5b 343e f7c6 ff3d a4a1 1f3e
00000050: 98f5 b53e 9e5b 463e 9923 be3d 8496 4d3e
00000060: cdc3 4d3e ae0e 213f 70e6 343e 1dce e73d
00000070: 2354 913e 98dc 013e c869 833e e6f1 1d3e
00000080: fbe2 f63d 0906 d33e 9782 f23d 8b87 7e3e
00000090: 6ba3 f43d 5f13 233e b9fe 873e b7b0 dc3d
000000a0: f312 263e d2e4 563e 0c14 593e 216d 043e
000000b0: d2fd 863e 6b69 e43e 8419 643e d099 8d3d
000000c0: 6232 473e d8f0 7b3e 9489 3b3e 886e 7f3d
000000d0: 20ab 5b3e fe13 1c3e a26e e73d 584e c53e
000000e0: 5263 023e 3ad5 083e b70a e13d 8b12 b33d
000000f0: d295 693e ae63 893e a0a8 763e ec23 c23e

weight f4 [64, 64, 3, 3]
0.036927003 -0.0125674 -0.019489331 -0.013870657 -0.00970015 -0.029198755 0.007173331 0.016883075
0.030959273 0.033225395 -0.008973932 0.039528 -0.0087967785 0.01350264 0.024849402 0.033028547
0.034877393 -0.041733347 -0.042082448 -0.03953786 0.0111001115 -0.020168554 0.004729305 0.008577282
-0.035206508 -0.020830613 0.031955693 0.040726922 0.0032715457 -0.02251847 -0.0104059605 -0.007477046
-0.016134134 -0.0103880325 0.019669218 -0.03646835 0.030400526 -0.03966275 -0.040712148 0.01891845
-0.008312719 0.022727363 0.023190534 -0.0042280382 0.03450117 0.04056144 -0.020621175 0.029132048
-0.006149898 -0.035664685 -0.033098392 0.009978917 -0.0086823655 0.002466525 0.006527139 -0.017765323
-0.030675575 0.034898475 -0.00879655 -0.02949389 -0.040749364 0.0018509822 -0.017243324 0.00050144485
0.03161315 -0.004991853 -0.03963777 -0.03519171 0.009574117 0.0007906369 -0.026409697 -0.0074548093
-0.0025866362 0.036801223 -0.008162029 -0.024332304 0.010793303 0.034854263 -0.011880261 0.005000414
-0.008440217 0.010997978 -0.022629317 -0.015594634 -0.030149776 0.01792862 0.029141167 -0.018437434
0.021271724 -0.040589683 -0.037263945 -0.027316699 -0.021266205 -0.029110607 0.0373439 0.016552003
0.038380276 0.037637956 0.029238194 0.027587438 0.02339363 0.009245135 0.0049888543 0.044482123
0.00663192 -0.0020839034 -0.034461025 0.03167698 0.03115129 -0.03213429 0.015204798 0.0034508915
-0.013631214 0.0041072005 -0.041975427 -0.017329598 -0.04394472 -0.010859387 0.021747092 0.03707327
0.012194715 -0.04182007 8.963164e-05 0.002865355 0.010442114 -0.00096465094 0.031108772 0.02998328
0.0107224835 -0.01854195 -0.02833887 -0.017909562 0.015297704 -0.016717933 -0.035984047 0.029494312
0.031988617 0.01284784 -0.016950348 0.0058942586 0.0017960883 -0.013705013 -0.019917622 0.03194621
0.012732677 0.010500171 0.018580515 -0.04207498 -0.02895929 -0.018483352 -0.00857954 0.03242779
-0.035383474 -0.029070457 -0.038624186 -0.040569354 -0.021412613 0.026154172 0.035686456 0.009136034
-0.023169855 -0.013477783 -0.006588126 0.023597276 0.014177718 0.024528967 0.021704119 -0.010061773
-0.022111418 0.02470687 0.043900292 0.03907153 -0.024398198 -0.039253056 0.036891405 -0.021057067
-0.018670581 0.014894534 0.035695907 0.02189151 0.0036003257 -0.016474461 -0.03335216 -0.029869692
0.029391179 0.032459777 0.017204119 0.035566512 -0.010011498 -0.01423639 0.03950781 -0.006214318
-0.023716124 0.029368859 0.022480305 0.041576948 -0.02909927 -0.00858414 -0.019907827 -0.041750487
0.037339933 -0.018477615 -0.0127522675 -0.026614549 -0.021223143 0.021777553 -0.01771912 0.012113846
-0.00080241816 -0.0043454054 0.013934288 0.0064508705 0.028658058 0.041100223 0.03916007 -0.03210854
0.04354345 -0.0063454183 -0.038907237 -0.0079203425 0.0034271292 0.0033789736 -0.0123029025 0.037856594
-0.023384128 -0.03794847 -0.014991138 -0.018573232 -0.024949187 0.035038684 -0.0018636335 0.03964793
0.036965176 0.005325767 -0.018829938 0.035410035 -0.032242727 -0.033071782 0.016360443 0.0021925159
-0.0025302584 -0.0040719495 -0.00081428495 -0.009507363 -0.036802743 0.010070368 -0.010263206 0.021662503
0.03782321 0.03175576 -0.020043906 0.035816453 0.0005026119 0.038543444 0.04193982 -0.0068859914
00000000: c540 173d 7fe7 4dbc 17a8 9fbc c141 63bc
00000010: 61ed 1ebc 3a32 efbc 430e eb3b 604e 8a3c
00000020: 4d9e fd3c 5a17 083d 6607 13bc 1de8 213d
00000030: 5d20 10bc 2d3a 5d3c f990 cb3c f148 073d
00000040: 99db 0e3d 96f0 2abd a55e 2cbd 73f2 21bd
00000050: 3edd 353c 8638 a5bc 49f8 9a3b ba87 0c3c
00000060: b334 10bd f6a4 aabc f9e3 023d 46d1 263d
00000070: 6e67 563b a878 b8bc c37d 2abc 0202 f5bb
00000080: bb2b 84bc 9132 2abc 5721 a13c d65f 15bd
00000090: 860a f93c 6875 22bd c8c1 26bd defa 9a3c
000000a0: 1232 08bc bc2e ba3c 13fa bd3c 5b8b 8abb
000000b0: 1951 0d3d c123 263d bded a8bc 55a6 ee3c
000000c0: 1585 c9bb 2215 12bd 2e92 07bd 9d7e 233c
000000d0: 7b40 0ebc 6ca5 213b 9ce1 d53b 9588 91bc
000000e0: 584b fbbc b4f1 0e3d 681f 10bc 2c9d f1bc
000000f0: cee8 26bd a89c f23a df41 8dbc 6573 033a
00000100: ca7c 013d b392 a3bb 375b 22bd 2f25 10bd
00000110: c2dc 1c3c bf42 4f3a 2659 d8bc 7947 f4bb
00000120: 8e84 29bb e1bc 163d 08ba 05bc 8a54 c7bc
00000130: 65d6 303c 58c3 0e3d 6da5 42bc 83da a33b
00000140: d648 0abc dd30 343c 1e61 b9bc a380 7fbc
00000150: aafc f6bc 0bdf 923c 75b9 ee3c 1a0a 97bc
00000160: 0a42 ae3c 5e41 26bd 14a2 18bd 45c7 dfbc
00000170: 7736 aebc 5e79 eebc ebf5 183d 1198 873c
00000180: a334 1d3d 422a 1a3d f084 ef3c 0dff e13c
00000190: ffa3 bf3c e878 173c 8b79 a33b e332 363d
000001a0: 9450 d93b 1992 08bb 0127 0dbd b9bf 013d
000001b0: fd30 ff3c 3f9f 03bd 8c1d 793c 5a28 623b
000001c0: 7555 5fbc b295 863b 6dee 2bbd cdf6 8dbc
000001d0: 61ff 33bd 92eb 31bc f526 b23c 24da 173d
000001e0: 58cc 473c 864b 2bbd 9ff8 bb38 aec8 3b3b
000001f0: 6715 2b3c a1e0 7cba d3d7 fe3c 7f9f f53c
00000200: 5bad 2f3c 4ae5 97bc eb26 e8bc 13b7 92bc
00000210: 39a3 7a3c 0cf4 88bc 0264 13bd 0e9e f13c
00000220: 7f06 033d bf7f 523c 75db 8abc a024 c13b
00000230: b96a eb3a fe8a 60bc 482a a3bc 07da 023d
00000240: b89c 503c e908 2c3c 2a36 983c d056 2cbd
00000250: 083c edbc 666a 97bc 3391 0cbc 01d3 043d
00000260: 43ee 10bd 2b25 eebc 6534 1ebd 0d2c 26bd
00000270: 8169 afbc 4641 d63c f62b 123d 4eaf 153c
00000280: b5ce bdbc ebd1 5cbc 35e1 d7bb 134f c13c
00000290: a949 683c f9f0 c83c d6cc b13c 22da 24bc
000002a0: 0123 b5bc 1066 ca3c cbd0 333d 7809 203d
000002b0: bbde c7bc d0c7 20bd 711b 173d df7f acbc
000002c0: 0cf3 98bc 3408 743c df35 123d d355 b33c
000002d0: 71f3 6b3b 73f5 86bc 469c 08bd 49b1 f4bc
000002e0: c5c5 f03c 8bf4 043d a7ef 8c3c 31ae 113d
000002f0: 4407 24bc bf3f 69bc f1d2 213d 7aa1 cbbb
00000300: 5148 c2bc f696 f03c 9e28 b83c 974c 2a3d
00000310: 9861 eebc 7ea4 0cbc bd15 a3bc 8f02 2bbd
00000320: c2f1 183d 5e5e 97bc e3ee 50bc c106 dabc
00000330: 28dc adbc d766 b23c b027 91bc 2779 463c
00000340: 5f59 52ba e763 8ebb a44c 643c d361 d33b
00000350: 4ec4 ea3c b558 283d 4f66 203d 3f84 03bd
00000360: 9e5a 323d 3aed cfbb 325d 1fbd 53c4 01bc
00000370: b099 603b c571 5d3b 1d92 49bc 840f 1b3d
00000380: 1290 bfbc db6f 1bbd 649d 75bc e426 98bc
00000390: 3d62 ccbc b984 0f3d 2a45 f4ba de65 223d
000003a0: cc68 173d c683 ae3b 3e41 9abc 1d0a 113d
000003b0: f310 04bd 4776 07bd 5606 863c 50b0 0f3b
000003c0: b1d2 25bb fd6d 85bb bd75 55ba c5c4 1bbc
000003d0: 79be 16bd 2ffe 243c 0227 28bc 9075 b13c
000003e0: 83ec 1a3d 5412 023d 1e33 a4bc 46b4 123d
000003f0: b7c1 033a bbdf 1d3d 17c9 2b3d e2a3 e1bb

bias f4 [64]
-0.00787781 0.02044113 0.0046797628 -0.037778776 -0.02195051 -0.020307757 -0.029871123 0.020153947
-0.035716668 0.028434215 0.026667286 -0.024398651 0.026424563 0.0062468327 0.013247178 -0.011919926
-0.0075634327 -0.025336608 0.025426313 0.01572207 0.006188369 0.028032022 -0.034475584 0.036951054
-0.029528452 0.010762107 0.013930975 -0.009421726 0.023816915 -0.017500537 0.023435127 -0.040077187
-0.023895277 -0.035423774 -0.026974736 0.030339852 -0.037288964 -0.033750307 -0.03024244 0.024992835
-0.02948268 -0.032848336 0.020983228 -0.017726053 -4.5421697e-05 -0.040021684 -0.020315476 -0.031982224
-0.022957286 -0.02514147 -0.02279433 0.026857076 0.016533058 0.022460993 -0.010817724 -0.0047971206
-0.024291078 0.038821317 0.019584557 -0.0065485192 -0.0023132877 -0.022441639 -0.029974915 0.008995824
00000000: ee11 01bc 2874 a73c b258 993b ebbd 1abd
00000010: 8ed1 b3bc 745c a6bc 49b4 f4bc e419 a53c
00000020: a44b 12bd dfee e83c 5a75 da3c aedf c7bc
00000030: 5378 d83c 3bb2 cc3b b10a 593c cb4b 43bc
00000040: acd6 f7bb b88e cfbc d84a d03c 92cb 803c
00000050: cdc7 ca3b 69a3 e53c 4536 0dbd fd59 173d
00000060: a7e5 f1bc 8c53 303c bf3e 643c 955d 1abc
00000070: b11b c33c 495d 8fbc 06fb bf3c fa27 24bd
00000080: 07c0 c3bc 8518 11bd 1ffa dcbc 488b f83c
00000090: 50bc 18bd c33d 0abd febe f7bc c6bd cc3c
000000a0: a985 f1bc fa8b 06bd 05e5 ab3c 3a36 91bc
000000b0: 2d83 3eb8 c7ed 23bd a46c a6bc cbff 02bd
000000c0: eb10 bcbc 7cf5 cdbc 2dbb babc 5f03 dc3c
000000d0: 5670 873c 1e00 b83c d33c 31bc 2a31 9dbb
000000e0: 15fe c6bc 1a03 1f3d cb6f a03c f694 d6bb
000000f0: 879a 17bb 87d7 b7bc f48d f5bc 3863 133c
